saved models/ep_1_decoder_model.pth (torch, 11027 bytes, 2 tensors)

decoder_L1.weight f4 [618, 3]
000000 90 19 70 bf 50 6d 84 bf 74 e3 7f bf 2a 68 68 bf
       -0.93789005 -1.034586 -0.9995644 -0.9078394
000010 8e e5 67 bf 44 9a 7f bf 3e 85 74 bf 7a fa 7c bf
       -0.9058465 -0.99844766 -0.9551581 -0.98819697
000020 c4 86 74 bf d0 b4 6f bf 25 e9 80 bf 6a eb 79 bf
       -0.95518136 -0.9363527 -1.007115 -0.9762484
000030 af 7f c9 3e a6 4b 6c 3f c1 8f 96 bf 81 0b eb be
       0.39355227 0.9230293 -1.176262 -0.45907214
000040 0f 7e 74 bf e2 ec 16 3f 9d b7 06 bf c4 60 42 bf
       -0.9550485 0.58955204 -0.5262392 -0.759289
000050 de 34 31 3e 18 31 58 bf b5 b0 84 bf a2 17 7b bf
       0.17305323 -0.8444991 -1.0366427 -0.98082936
000060 d5 f9 9f be 2b 87 52 bf 5e 52 be 3d 49 4d 83 be
       -0.31245294 -0.822375 0.09293054 -0.256449
000070 89 61 8a be d7 e5 15 bf 8d 39 1f bf 04 ac 3e bf
       -0.27027538 -0.5855383 -0.6219719 -0.74481225
000080 cb 84 57 3e b9 7a 12 bf 9a fd 28 bf 19 83 24 3e
       0.2104675 -0.5721851 -0.66011965 0.16065635
000090 00 e2 77 bf e6 29 7a bf 11 0c 7a bf ee a1 f8 be
       -0.96829224 -0.9772018 -0.9767466 -0.48561043
0000a0 a1 ab 65 bf 40 65 49 3e d3 bf 7e bf 34 3c 6c bf
       -0.8971501 0.1966753 -0.9951145 -0.9227936
0000b0 e3 93 80 bf 61 b1 04 be a0 ec b7 be e8 08 12 bf
       -1.0045131 -0.1295829 -0.35922718 -0.5704484
0000c0 fb 12 6d bf dd be 70 bf 51 57 78 bf c8 88 74 bf
       -0.92607087 -0.94041234 -0.97008234 -0.9552121
0000d0 53 f7 83 bf 26 22 72 bf ae ef 6a bf 68 ce 80 bf
       -1.0309852 -0.94583356 -0.9177197 -1.006299
0000e0 99 4a 70 bf 9a 53 82 bf b4 2d 70 bf 3e 6a 65 bf
       -0.93863827 -1.0181763 -0.9381974 -0.8961524
0000f0 49 74 72 bf 62 62 86 bf 95 6a 7a bf 48 cd 67 bf
       -0.9470869 -1.0498774 -0.9781888 -0.9054761
000100 a4 0c 6d bf af 1f 83 bf 7a 9f 66 bf 69 24 83 bf
       -0.92597413 -1.0244044 -0.9008709 -1.0245486
000110 8e 60 68 bf 1e ba 80 bf 4d 13 79 bf cb 0b 7a bf
       -0.9077233 -1.0056798 -0.97295076 -0.97674245
000120 97 08 5b bf bf 00 89 bf 56 de 7c bf ae f5 80 bf
       -0.8555998 -1.0703353 -0.9877676 -1.0074975
000130 5b e8 6c bf d8 74 7e bf c5 be 74 bf 59 38 7a bf
       -0.92542046 -0.9939704 -0.9560359 -0.9774223
000140 f1 7a 6f bf 29 15 77 bf 40 eb 72 bf b5 fb 84 bf
       -0.9354697 -0.9651666 -0.94890213 -1.0389315
000150 06 56 6d bf 30 52 7a bf 79 ce 77 bf 94 f1 80 bf
       -0.92709386 -0.9778166 -0.9679943 -1.0073724
000160 1b 4d 67 bf a1 b4 83 bf 48 cd 68 bf ea 81 64 bf
       -0.9035203 -1.0289499 -0.90938234 -0.89260733
000170 31 ee 85 bf a8 a0 79 bf 44 3f 78 bf 79 42 76 bf
       -1.0463315 -0.97510767 -0.96971536 -0.9619518
000180 b5 11 65 bf 2a a5 81 bf 77 02 6e bf b2 91 64 bf
       -0.89480144 -1.0128529 -0.9297251 -0.89284813
000190 6e e8 82 bf 39 9b 7e bf 12 3c 86 bf 01 cb 7c bf
       -1.0227182 -0.994556 -1.0487082 -0.9874726
0001a0 16 4a 67 bf dd a6 69 bf ed 15 86 bf 94 9a 61 bf
       -0.9034742 -0.9127024 -1.0475441 -0.8812649
0001b0 a3 b1 81 bf c2 fb 7a bf 23 cd 6b bf e4 e4 80 bf
       -1.0132335 -0.980404 -0.9210989 -1.0069852
0001c0 34 c4 80 bf a4 e0 73 bf 28 ec 7a bf a9 08 71 bf
       -1.0059876 -0.9526465 -0.98016596 -0.9415384
0001d0 78 dc 80 bf 17 45 7a bf 11 d6 73 bf a5 fb 6c bf
       -1.0067282 -0.9776167 -0.95248514 -0.9257148
0001e0 2e a6 6f bf 25 96 6e bf 94 f5 7f bf ce b6 6e bf
       -0.93612945 -0.9319785 -0.999841 -0.9324769
0001f0 a0 fe 72 bf 5f be 70 bf d8 e3 77 bf 6c a5 69 bf
       -0.94919777 -0.94040483 -0.96832037 -0.9126804
000200 16 af 83 bf d6 1d 5f bf 77 87 80 bf ca 84 84 bf
       -1.0287807 -0.871549 -1.004134 -1.0353024
000210 5e 32 82 bf ed 82 5f bf f1 db 82 bf e7 1d 78 bf
       -1.0171621 -0.8730915 -1.0223371 -0.9692063
000220 27 7d 82 bf ce 18 81 bf ba f7 6c bf eb 2e 67 bf
       -1.0194443 -1.0085695 -0.925655 -0.90305966
000230 b2 1d 7d bf d4 cc 7a bf 25 4b 7f bf ab 53 77 bf
       -0.98873436 -0.9796879 -0.99724036 -0.9661204
000240 12 ea 6f bf 3a 38 80 bf bb 1f 78 bf f4 cb 76 bf
       -0.9371654 -1.0017159 -0.96923417 -0.9640496
000250 f3 00 7a bf f2 56 82 bf 04 ee 83 bf 11 57 6f bf
       -0.976577 -1.0182784 -1.0307012 -0.9349223
000260 15 e5 67 bf 61 fb 81 bf 12 c4 83 bf 9a 6b 71 bf
       -0.90583926 -1.015484 -1.0294211 -0.9430481
000270 e6 23 6d bf f2 00 74 bf 3c 7c 84 bf 14 f0 75 bf
       -0.926329 -0.9531394 -1.0350413 -0.96069455
000280 2a 35 7a bf c4 eb 80 bf ed 03 76 bf 44 66 68 bf
       -0.9773737 -1.007195 -0.9609974 -0.90781045
000290 08 e0 86 bf 4a 51 64 bf a3 66 86 bf fc 3f 61 bf
       -1.0537119 -0.8918654 -1.0500072 -0.8798826
0002a0 b2 9b 70 bf 4e 78 77 bf 1b d7 7b bf c9 c8 6d bf
       -0.9398757 -0.96667945 -0.983751 -0.928845
0002b0 ef fa 80 bf 03 16 6f bf 2c ad 65 bf 4c 64 78 bf
       -1.0076579 -0.9339296 -0.89717364 -0.9702804
0002c0 0a 82 66 bf 4e 69 81 bf 74 db 87 bf 01 7d 60 bf
       -0.90042174 -1.0110261 -1.0613847 -0.8769074
0002d0 1a de 65 bf f9 62 6d bf 98 a9 7a bf 64 55 61 bf
       -0.89792025 -0.92729145 -0.9791503 -0.8802092
0002e0 3f f7 85 bf e9 58 81 bf 20 7d 79 bf ee a4 69 bf
       -1.0466079 -1.0105258 -0.9745655 -0.9126729
0002f0 3e 6a 7e bf 7c b5 81 bf 66 63 67 bf eb c0 75 bf
       -0.9938086 -1.013351 -0.90386045 -0.95997494
000300 e1 14 7d bf 47 aa 6b bf d3 59 7a bf 2e db 81 bf
       -0.98859984 -0.920567 -0.9779331 -1.0145013
000310 cb c6 74 bf 14 53 7e bf 6f 9e 68 bf 47 09 74 bf
       -0.95615834 -0.9934552 -0.9086675 -0.95326656
000320 76 4b 72 bf 4c 10 6e bf bc 1b 74 bf 6d b5 7f bf
       -0.94646394 -0.9299362 -0.9535482 -0.9988621
000330 a9 82 70 bf 2d eb 86 bf 96 47 74 bf 7a 48 82 bf
       -0.9394937 -1.054052 -0.9542173 -1.0178368
000340 ff 53 7b bf 21 37 80 bf ff 14 78 bf 0a 75 83 bf
       -0.9817504 -1.0016824 -0.9690704 -1.0270092
000350 36 48 65 bf bd 96 81 bf 2e 47 80 bf f8 7a 63 bf
       -0.8956331 -1.0124127 -1.0021722 -0.8885951
000360 0b 05 69 bf c5 f3 7d bf 33 74 75 bf 25 42 66 bf
       -0.9102332 -0.9920009 -0.9588043 -0.8994468
000370 ae b6 7f bf 32 1f 84 bf 03 7a 6f bf 6e 2b 71 bf
       -0.9988812 -1.032202 -0.9354555 -0.94206893
000380 df b4 83 bf 7c 0b 73 bf 03 52 8b bf 4f 3b 66 bf
       -1.0289572 -0.949394 -1.0884403 -0.8993425
000390 22 09 6b bf c3 2f 89 bf 1b d7 62 bf 9a 12 6b bf
       -0.9181081 -1.0717701 -0.88609475 -0.9182526
0003a0 51 86 85 bf 3d 20 74 bf 35 7c 7b bf 6a 8f 72 bf
       -1.0431615 -0.9536169 -0.982364 -0.9475008
0003b0 fd 18 71 bf 65 5a 84 bf 79 ac 6b bf b1 ea 73 bf
       -0.94178754 -1.0340086 -0.9206005 -0.95279986
0003c0 fc 5f 72 bf 4a c4 7d bf 0b 59 85 bf 08 f1 6f bf
       -0.9467771 -0.9912764 -1.0417799 -0.9372716
0003d0 95 aa 75 bf f2 f8 84 bf 56 d9 75 bf 2d 48 84 bf
       -0.9596341 -1.0388472 -0.96034753 -1.0334526
0003e0 19 f8 7f bf b2 87 4a be 16 3f ba bd 39 69 4b bf
       -0.9998794 -0.19778326 -0.09094064 -0.7945743
0003f0 e5 36 31 be dc 70 b9 bd 8f 57 3e bf fe bc 2e be
       -0.17306097 -0.09054729 -0.74352354 -0.17064282

decoder_L1.bias f4 [618]
000000 c1 b1 a1 be d0 fe 11 3e 41 57 9c be b1 20 e3 be
       -0.31580928 0.1425736 -0.3053532 -0.4436088
000010 d8 33 99 bf 20 c1 56 bd fa 66 59 be 59 f0 6e 3e
       -1.1968946 -0.052430272 -0.21230689 0.23333873
000020 10 69 24 bf 5b 7e 8a bc c3 75 0c bd 58 b0 de be
       -0.6422281 -0.016905954 -0.034291994 -0.43493915
000030 aa 1d 58 bf 0e f2 67 3b 88 ce ef be bc 12 68 be
       -0.84420264 0.0035392079 -0.46837258 -0.22663397
000040 25 59 31 be 64 12 0d bf 4b 29 6b be d3 0d 4c bc
       -0.17319162 -0.55106187 -0.22964971 -0.012454468
000050 59 a3 c8 be c1 c9 ab 3d 10 6d 6b 3d 18 b9 4b be
       -0.39187124 0.08388091 0.057477057 -0.19894826
000060 05 d0 82 3d 15 40 21 3e bf 5f 28 bf 10 e6 38 bf
       0.06387333 0.15747102 -0.65771097 -0.7222605
000070 53 a5 35 be f8 e1 e4 bd 45 df 61 3e d4 0a 23 bf
       -0.17738847 -0.111759126 0.22057827 -0.636884
000080 6a f5 b4 3d 88 03 10 bf 73 4f 99 be 37 56 58 3c
       0.088358715 -0.5625539 -0.29943427 0.013204149
000090 e7 61 38 bf 48 1e 02 bf 9e b5 6d bf 72 46 3b bf
       -0.7202439 -0.50827456 -0.9285525 -0.73154366
0000a0 f5 b3 16 3c 3f d8 84 bf bb fe 18 be 48 76 85 3d
       0.009198179 -1.0378493 -0.14940922 0.06516701
0000b0 7f b0 59 3e 5e 4e 42 bf b7 98 32 3e 30 41 ff be
       0.21258734 -0.7590083 0.17441069 -0.49854422
0000c0 63 1a 2c 3e d8 08 59 be 06 b7 48 be e7 41 56 be
       0.1680694 -0.2119478 -0.19601068 -0.20923577
0000d0 92 97 8e be 40 04 4f 3d ac 0e f1 be 5c 3c 10 3d
       -0.27850014 0.050541162 -0.47081506 0.035213813
0000e0 03 06 9f be 7d 70 38 bf 6d 5a 3d 3e ac 1c f8 be
       -0.31059274 -0.72046643 0.18491526 -0.48459375
0000f0 13 af 10 3e 72 7f 30 be e1 52 35 bd 24 04 f7 3d
       0.14129286 -0.17236117 -0.044268493 0.12061337
000100 8a cb ee bd fe 83 87 be 95 2f cf 3c 1c bb 5e be
       -0.11659916 -0.2646789 0.025291244 -0.21751064
000110 30 05 02 be 26 12 8c be 96 77 ef 3d 19 99 5d bf
       -0.12697291 -0.27357596 0.11692731 -0.86561733
000120 15 31 58 bf 8e f0 fa be d5 77 80 bf b4 55 05 bf
       -0.84449893 -0.49011654 -1.003657 -0.520839
000130 1e 76 b0 bd 01 98 ea bd e3 5d c9 be d2 a5 43 bc
       -0.08616279 -0.11454774 -0.39329442 -0.01194139
000140 b6 f5 0c bf 69 82 29 bf 9c 2e 26 bf d9 91 33 be
       -0.55062425 -0.66214615 -0.6491487 -0.17536105
000150 56 58 0a bf 95 f0 02 bd 16 fe 0c bf c2 d4 53 bf
       -0.5404104 -0.03196772 -0.55075204 -0.8274652
000160 a8 89 1a be 3e 01 d4 be 18 0d 81 be aa 2d 6b bf
       -0.15091574 -0.41407198 -0.25205302 -0.9186655
000170 47 45 21 3e 2e 66 83 3e a8 44 00 bf a8 0f 39 be
       0.15749083 0.25663894 -0.5010476 -0.18072379
000180 82 6e 60 bf a4 92 80 3e 4a f4 03 3e f1 83 02 bf
       -0.8766862 0.25111878 0.12886158 -0.50982577
000190 6c 37 29 bf 85 c9 b1 be e3 de 78 bc 7e b6 6d 3e
       -0.6610019 -0.3472406 -0.015189859 0.23214146
0001a0 1b b1 04 bf a2 97 f4 be 5e 0f 60 be bd 35 4d be
       -0.5183274 -0.47771937 -0.21880862 -0.20040031
0001b0 31 6a 57 3e 4e 63 1a bf 3e cc 49 bf 92 04 2a bf
       0.21036603 -0.60307777 -0.78827274 -0.66413224
0001c0 01 37 a0 3e cb 9d 76 be 35 fc b1 3c 22 ce 34 bd
       0.31291965 -0.2408363 0.021726707 -0.044141896
0001d0 33 b8 a2 3e 0d 83 77 3e e8 3c 90 bd cf 2c 0e be
       0.31781158 0.24171086 -0.07042867 -0.1388428
0001e0 48 22 3b bf 3c 73 ca be 24 99 a9 be 20 92 5f 3e
       -0.73099184 -0.39541042 -0.3312465 0.21833086
0001f0 05 4f 82 bd 20 89 20 3e 90 20 b4 3d 00 2d fa be
       -0.06362728 0.15677309 0.08795273 -0.48862457
000200 d0 fd a0 3d e7 3b 26 bf e0 c4 e0 3d 72 af 04 bf
       0.07860911 -0.64935154 0.10975051 -0.5183021
000210 9a 6a 3e bf f7 19 c2 be 60 6c 33 bf 4b 98 d6 be
       -0.7438141 -0.37910435 -0.7008724 -0.41913065
000220 28 c1 77 3e f8 94 0e bf eb 29 cc be 7a 5e 58 3e
       0.24194777 -0.5569606 -0.3987573 0.2112979
000230 7b 20 08 3e 18 f0 2e bf 0e 80 44 3e 0a b3 b0 be
       0.1329364 -0.68335104 0.19189474 -0.34511596
000240 11 01 61 3d 47 38 d2 be 95 89 f9 be 21 77 2e 3e
       0.054932658 -0.4105856 -0.4873778 0.17037632
000250 8d 43 2a bd de fb ac bc 7d 63 36 bd 29 30 19 bf
       -0.041568328 -0.021116193 -0.044528473 -0.5983911
000260 ee 3d 59 bf 4c a6 3a bd 6a 8a f7 be 88 1c 29 bf
       -0.8486012 -0.04556875 -0.4834779 -0.6605916
000270 18 d2 3c bf 2b 11 c8 3d 46 51 1a 3e ea a9 43 bf
       -0.7375808 0.097688995 0.15070066 -0.76431143
000280 68 c4 ec 3d 39 07 08 3d aa 5f 41 3e 81 78 5c bf
       0.11560899 0.033210013 0.18884149 -0.86121374
000290 da 15 40 bf a5 c5 02 bf 3f 39 52 bf 75 10 5e bf
       -0.7503334 -0.5108283 -0.821186 -0.8674386
0002a0 0f d7 6c bf 1f 1c 69 bf bd b6 13 3d dc a7 46 bf
       -0.92515653 -0.91058534 0.036062945 -0.77599883
0002b0 22 cb ff be dd 20 7c 3c 7a 78 0a bf cd 87 72 3c
       -0.49959666 0.015388695 -0.5409008 0.014802885
0002c0 35 6e 80 3e bc 09 85 be d5 c5 25 bf d3 48 11 bc
       0.2508408 -0.2598399 -0.6475499 -0.00886746
0002d0 26 58 56 be 37 d3 31 bf 15 3e 2f be 2d ea 15 bf
       -0.20932063 -0.69462913 -0.17113526 -0.5856045
0002e0 74 4a 1d bf 58 60 77 3e 37 20 59 bf 9b 21 b9 b9
       -0.6144173 0.24157846 -0.8481478 -0.00035310988
0002f0 ec 2a 34 bf c0 5b 2d be 66 c7 37 bf 97 dd 55 bf
       -0.70377994 -0.16929531 -0.7178863 -0.83541244
000300 c9 18 33 bf de 90 03 be 75 ed 02 bf b8 79 6b bf
       -0.69959694 -0.12848231 -0.5114358 -0.91982603
000310 ec 5f 9e bc 19 ee 51 bf cd 5d 65 bf 2d c5 73 bc
       -0.019332848 -0.82003933 -0.89596254 -0.014878553
000320 27 8e 29 3d 50 e3 ab bc 42 af 3f bf 77 53 24 bf
       0.041395333 -0.020982414 -0.748768 -0.6418986
000330 55 ce 13 bc 77 97 7a bf 45 d3 50 3e 64 6c 27 be
       -0.009021361 -0.97887367 0.20393093 -0.16349941
000340 57 b5 07 be 46 dc fa be e2 e1 1a bf 7b 9b 29 be
       -0.1325277 -0.4899618 -0.6050092 -0.16563217
000350 30 42 40 3d 64 19 4a be d8 49 24 be ba 06 5e bf
       0.04693812 -0.19736248 -0.16043794 -0.86729014
000360 be 93 91 bd 83 b1 28 be 34 d5 85 3e cc bf 13 be
       -0.07108258 -0.16473965 0.26139224 -0.14428633
000370 d5 a2 5a 3e ed d0 19 bf ea a9 2a bf fb 0c cf 3d
       0.21351178 -0.6008442 -0.6666552 0.10109898
000380 ec 9b 41 bf 4f 04 3e 3e 25 28 6a bf af fe 22 bf
       -0.7562854 0.18556331 -0.91467506 -0.63669866
000390 be 00 21 3e ee 84 28 bf bb dd 6f 3e f2 75 52 bf
       0.1572294 -0.65827835 0.23424427 -0.8221122
0003a0 40 25 16 bf b8 a5 93 be f4 5d f0 be 36 10 f2 be
       -0.5865059 -0.2883737 -0.4694668 -0.47277993
0003b0 fd 22 f2 bc c7 04 6b bf 9a 37 ef 3e bf 79 95 3e
       -0.0295577 -0.91804165 0.46722108 0.29194447
0003c0 e6 fe bc 3d 3a a8 82 bf c7 a0 71 be a2 ae 12 bf
       0.092283055 -1.0207589 -0.23596488 -0.5729772
0003d0 d7 64 2e bf a2 7d 07 bf e8 9a 91 be e1 2a 53 be
       -0.6812262 -0.52926075 -0.28438497 -0.20621826
0003e0 66 9a 62 bf 6d 51 a3 3d a7 52 12 be 39 44 73 3e
       -0.88516843 0.07974515 -0.14289342 0.23756494
0003f0 3a 87 1b 3e 6a bd fa bd 1b f6 89 3b e2 38 12 bd
       0.15188304 -0.12243159 0.0042102463 -0.03569878
