saved models/ep_1_encoder_model.pth (torch, 8595 bytes, 2 tensors)

encoder_L1.weight f4 [3, 618]
-0.015287444 -0.02946421 -0.064002745 0.09958384 0.94222575 0.66592246 0.5437851 0.10781249
0.68232983 0.7358928 0.5295767 0.49641508 -0.053828437 0.64196765 0.063566424 0.81926715
-0.053694278 0.063092075 0.109733015 -0.070868194 -0.037700873 0.11399465 0.053686973 -0.014663107
0.009166847 0.018592915 0.11704253 0.002991365 -0.04021229 -0.03375716 0.034699578 0.094792336
-0.033644408 -0.04076746 -0.068329476 0.016798418 -0.037813846 -0.010357495 0.012752191 -0.041731805
0.036606092 0.10709255 0.015949564 -0.059580732 0.052604195 0.049397293 -0.010696941 -0.04217183
-0.055736408 0.054554448 0.08495777 0.025188228 -0.033017915 0.08780857 -0.048695434 0.06122687
-0.05620216 -0.06182409 -0.059503146 0.08881872 0.12768728 0.0415066 -0.0397218 -0.07340713
0.11096903 0.015271131 -0.031359322 -0.03586575 0.048379015 -0.017556254 0.09685916 0.06140613
0.08633347 0.031409908 0.04972046 0.08340429 0.068202734 0.054456454 0.08566477 0.10783874
-0.06442694 -0.02074972 0.091008745 1.0190606 0.9517223 0.9619365 0.9987166 0.9396322
0.91914046 1.0156562 0.9911417 0.9971869 1.0384715 0.5230991 0.6145442 0.4277032
0.38559923 0.4314168 0.3738259 0.46151847 0.412708 0.38155895 0.40602782 0.37162483
0.4325324 0.45935184 0.4703069 0.43229133 0.34173793 0.34585476 0.38501394 0.3512222
0.41614687 0.47412944 0.4725704 0.42392132 0.4151204 0.42135158 0.5063698 0.43053454
0.43591198 0.40203342 0.37718627 0.5230789 0.5004971 0.4116086 0.5699879 0.4407916
0.44916418 0.44466653 0.4481963 0.4218031 0.48870507 0.44841817 0.4159266 0.40568608
0.40414584 0.41073054 0.38325477 0.42327705 0.39925504 0.34404954 0.30905727 0.4055324
0.4205574 0.46829015 0.39570472 0.4490734 0.48448205 0.43916464 0.41406864 0.37418127
0.44668043 0.43334216 0.36083633 0.4196055 0.43676496 0.3535698 0.3595369 0.3918409
0.391353 0.40283477 0.47340864 0.54319036 0.4725883 0.50081897 0.40973246 0.4306857
0.54707056 0.49164456 0.44710383 0.4314342 0.4151615 -0.046561196 -0.047696687 0.05693692
0.05892711 0.025927586 0.07915067 0.08591158 -0.020870091 0.04295592 0.116436034 0.061789796
0.12100185 0.11109294 0.042174473 0.0948382 0.10285613 0.04299932 0.016028812 0.0934129
-0.031288844 0.04284882 -0.05381788 0.09212604 -0.012318572 0.025403982 0.08684504 -0.00026198383
0.056855693 -0.060141683 0.023667928 -0.07156486 0.10581034 0.056217466 0.058109477 -0.020028964
-0.014718786 -0.044869326 -0.057449028 0.020836977 -0.0069063897 -0.06046181 0.12149024 0.11775346
-0.035305567 0.09147749 0.001568239 0.01819145 0.058288768 -0.059013765 -0.053548276 0.11325581
0.06804744 -0.0633812 -0.020496791 0.054491915 0.06835558 -0.012252421 0.09432763 0.04053341
-0.03121304 0.023459392 -0.016735591 0.089231 1.2509475 0.06602721 0.21218346 0.1635642
0.09707825 0.10980062 0.06581745 0.10020625 -0.026389262 0.12153746 0.096828155 -0.029639523
0.06391168 0.057558857 -0.03392914 -0.025148617 -0.0072205886 0.104856946 -0.028133772 0.083888374
00000000: 3078 7abc ed5e f1bc df13 83bd 9df2 cb3d
00000010: b535 713f e579 2a3f 8035 0b3f cbcc dc3d
00000020: 2bad 2e3f 7863 3c3f 5792 073f 1e2a fe3e
00000030: 357b 5cbd fe57 243f 1d2f 823d 7ebb 513f
00000040: 88ee 5bbd 6b36 813d b4bb e03d 5823 91bd
00000050: 3b6c 1abd 0776 e93d dfe6 5b3d 873d 70bc
00000060: 8b30 163c 2b50 983c feb3 ef3d c70a 443b
00000070: a4b5 24bd f344 0abd 2521 0e3d 7c22 c23d
00000080: b8ce 09bd c8fb 26bd 53f0 8bbd d69c 893c
00000090: b1e2 1abd 7cb2 29bc 91ee 503c f8ee 2abd
000000a0: 45f0 153d 5753 db3d a9a8 823c ed0a 74bd
000000b0: 7f77 573d d154 4a3d 3942 2fbc 5ebc 2cbd
000000c0: dc4b 64bd 7c74 5f3d 57fe ad3d 8b57 ce3c
000000d0: cb3d 07bd fbd4 b33d dd74 47bd 07c9 7a3d
000000e0: 3c34 66bd 423b 7dbd 92b9 73bd 97e6 b53d
000000f0: 74c0 023e d302 2a3d 53b3 22bd 7a56 96bd
00000100: bb43 e33d c433 7a3c a272 00bd f7e7 12bd
00000110: 1329 463d 22d2 8fbc 185e c63d ff84 7b3d
00000120: 9acf b03d ada7 003d aea7 4b3d decf aa3d
00000130: e0ad 8b3d bb0d 5f3d 0371 af3d 8fda dc3d
00000140: 46f2 83bd 51fb a9bc cb62 ba3d 9470 823f
00000150: 13a4 733f 7841 763f e4ab 7f3f bc8b 703f
00000160: ca4c 6b3f 0601 823f 76bb 7d3f a447 7f3f
00000170: a2ec 843f d3e9 053f c552 1d3f eafb da3e
00000180: 436d c53e aae2 dc3e 1c66 bf3e 264c ec3e
00000190: 774e d33e b25b c33e e1e2 cf3e 9c45 be3e
000001a0: e374 dd3e 2a30 eb3e 11cc f03e 4a55 dd3e
000001b0: 46f8 ae3e e013 b13e 8c20 c53e 65d3 b33e
000001c0: 3411 d53e 18c1 f23e bff4 f13e 370c d93e
000001d0: a98a d43e 65bb d73e 74a1 013f 066f dc3e
000001e0: db2f df3e 53d7 cd3e 8f1e c13e 80e8 053f
000001f0: 9420 003f 5dbe d23e baea 113f 70af e13e
00000200: d9f8 e53e 55ab e33e fc79 e53e 93f6 d73e
00000210: 8d37 fa3e 1197 e53e 55f4 d43e 16b6 cf3e
00000220: 34ec ce3e 464b d23e f839 c43e c5b7 d83e
00000230: 286b cc3e 4327 b03e c13c 9e3e f1a1 cf3e
00000240: 4d53 d73e bac3 ef3e cf99 ca3e f3ec e53e
00000250: 080e f83e 30da e03e ce00 d43e b094 bf3e
00000260: 4cb3 e43e 06df dd3e 8abf b83e 88d6 d63e
00000270: a89f df3e 1a07 b53e 3815 b83e 5f9f c83e
00000280: 6c5f c83e 5c40 ce3e 9e62 f23e 860e 0b3f
00000290: 18f7 f13e ac35 003f 74c8 d13e d682 dc3e
000002a0: d10c 0c3f d6b8 fb3e cbea e43e f2e4 dc3e
000002b0: 0c90 d43e f4b6 3ebd 9a5d 43bd b036 693d
000002c0: 8e5d 713d 1766 d43c bf19 a23d 69f2 af3d
000002d0: c1f7 aabc 8cf2 2f3d 0476 ee3d 4c17 7d3d
000002e0: d1cf f73d b284 e33d 24bf 2c3d 883a c23d
000002f0: 3ca6 d23d 0e20 303d db4e 833c 434f bf3d
00000300: bb28 00bd 3f82 2f3d 2370 5cbd 94ac bc3d
00000310: d6d3 49bc 031c d03c d0db b13d e05a 89b9
00000320: 84e1 683d 2057 76bd 3ee3 c13c 9990 92bd
00000330: 17b3 d83d 4944 663d 3404 6e3d c813 a4bc
00000340: 1027 71bc e6c8 37bd ac4f 6bbd 4fb2 aa3c
00000350: ff4e e2bb cea6 77bd e0cf f83d ba28 f13d
00000360: 929c 10bd 8d58 bb3d 5e8d cd3a 3c06 953c
00000370: 34c0 6e3d 6bb8 71bd 7055 5bbd aaf2 e73d
00000380: 755c 8b3d 01ce 81bd e3e8 a7bc ea32 5f3d
00000390: 03fe 8b3d 61be 48bc d82e c13d 5c06 263d
000003a0: 7db2 ffbc e92d c03c 1419 89bc bebe b63d
000003b0: 0c1f a03f 4639 873d 9f46 593e 607d 273e
000003c0: f6d0 c63d 26df e03d 4dcb 863d ef38 cd3d
000003d0: 4b2e d8bc a2e8 f83d d74d c63d 96ce f2bc
000003e0: 20e4 823d d6c2 6b3d 48f9 0abd 7904 cebc
000003f0: b09a ecbb 3dbf d63d cc78 e6bc abcd ab3d

encoder_L1.bias f4 [3]
0.8990462 0.89751494 0.91798973
00000000: e427 663f 8ac3 653f 6001 6b3f
