saved models/ep_2_decoder_model.pth (torch, 11027 bytes, 2 tensors)

decoder_L1.weight f4 [618, 3]
0	0xbf8b8b4c	-1.0901885
1	0xbf9c58c1	-1.2214586
2	0xbf9b541b	-1.2135042
3	0xbf884666	-1.0646484
4	0xbf8da614	-1.1066308
5	0xbf9b472f	-1.2131099
6	0xbf8df7a9	-1.1091205
7	0xbf975059	-1.1821395
8	0xbf969a3e	-1.1765821
9	0xbf8b83d4	-1.0899606
10	0xbf993bd8	-1.1971388
11	0xbf98bdb5	-1.1932894
12	0x3f14f553	0.58186835
13	0x3fc1dee3	1.5146145
14	0xc02d9b1b	-2.712592
15	0xbfab088c	-1.3361983
16	0xc028b0e8	-2.6357975
17	0x3fc7884e	1.5588472
18	0xbed355d3	-0.41276416
19	0xbf693f8c	-0.9111259
20	0x3da5cd4c	0.08095798
21	0xbf80823d	-1.0039746
22	0xbf9c9e69	-1.2235843
23	0xbf98d0cc	-1.193872
24	0xbf3576ca	-0.7088438
25	0xbfb24fed	-1.3930641
26	0x3f025997	0.50917953
27	0xbe11a670	-0.14223647
28	0xbec6c3cf	-0.38821265
29	0xbf060246	-0.5234722
30	0xbedb07c4	-0.42779362
31	0xbf6cc6aa	-0.9249064
32	0x3da500ef	0.08056819
33	0xbed484df	-0.41507623
34	0xbf5ebf3f	-0.8701057
35	0x3ddd9edf	0.10821318
36	0xbf8f1a3f	-1.1179885
37	0xbf9596a7	-1.16866
38	0xbf98910e	-1.1919267
39	0xbf43f7d6	-0.7655004
40	0xbfc18ae1	-1.5120507
41	0x3f04baa7	0.5184731
42	0xbf927533	-1.1442016
43	0xbf8f6f98	-1.1205931
44	0xbf9c2409	-1.2198497
45	0xbe1cc518	-0.1530956
46	0xbec59a81	-0.3859444
47	0xbf05d5d5	-0.52279407
48	0xbf8a98c2	-1.0827868
49	0xbf91d50b	-1.139314
50	0xbf9849ae	-1.1897485
51	0xbf8de1ac	-1.1084495
52	0xbf9c3d4c	-1.2206206
53	0xbf9563c0	-1.1671066
54	0xbf89982d	-1.0749565
55	0xbf997d3f	-1.1991347
56	0xbf9496c1	-1.1608506
57	0xbf95f764	-1.1716123
58	0xbf9272bb	-1.1441263
59	0xbf907e9f	-1.1288642
60	0xbf8c6445	-1.09681
61	0xbf9dd8a0	-1.2331734
62	0xbf987e2a	-1.1913502
63	0xbf87e4e4	-1.0616727
64	0xbf8fea50	-1.1243382
65	0xbf9e4334	-1.2364259
66	0xbf87ccd7	-1.0609387
67	0xbf9be8df	-1.2180442
68	0xbf912284	-1.1338658
69	0xbf93be17	-1.1542386
70	0xbf958532	-1.1681273
71	0xbf98ff26	-1.1952865
72	0xbf81dcba	-1.0145485
73	0xbfa0a1b6	-1.254935
74	0xbf99cb94	-1.2015252
75	0xbf942826	-1.1574752
76	0xbf906075	-1.1279436
77	0xbf9b38d9	-1.2126724
78	0xbf8e199f	-1.1101569
79	0xbf95f817	-1.1716336
80	0xbf943c29	-1.158086
81	0xbf8ea416	-1.1143825
82	0xbf922b05	-1.1419379
83	0xbf9fc733	-1.2482666
84	0xbf8aa35a	-1.0831101
85	0xbf96219c	-1.1729007
86	0xbf97fabf	-1.1873397
87	0xbf941215	-1.1568018
88	0xbf8d923b	-1.1060251
89	0xbf9f3fb7	-1.2441319
90	0xbf885b26	-1.0652816
91	0xbf8c11be	-1.0942914
92	0xbfa0d491	-1.256487
93	0xbf903887	-1.1267251
94	0xbf951433	-1.1646789
95	0xbf974f2e	-1.1821039
96	0xbf86fd3a	-1.0546029
97	0xbf9a71c5	-1.206597
98	0xbf9393ec	-1.1529517
99	0xbf862a01	-1.0481569
100	0xbf9abcaa	-1.2088826
101	0xbf9a95f4	-1.2077012
102	0xbf994117	-1.1972989
103	0xbf97b1f9	-1.1851188
104	0xbf911aa6	-1.1336257
105	0xbf8963cc	-1.073358
106	0xbf9ed8a2	-1.2409861
107	0xbf8e5571	-1.1119825
108	0xbf94f1ff	-1.1636351
109	0xbf96ab37	-1.1771001
110	0xbf92e5ef	-1.147642
111	0xbf93c127	-1.154332
112	0xbf992448	-1.1964197
113	0xbf95fa72	-1.1717055
114	0xbf90ab93	-1.130236
115	0xbf91a456	-1.1378276
116	0xbf9c58d9	-1.2214614
117	0xbf90c5c6	-1.1310356
118	0xbf9352df	-1.1509665
119	0xbf935e55	-1.1513163
120	0xbf8b869c	-1.0900455
121	0xbf90a8ab	-1.1301473
122	0xbf9b7d00	-1.2147522
123	0xbf8b1d44	-1.0868306
124	0xbf927702	-1.1442568
125	0xbf9483c9	-1.1602718
126	0xbf8f4611	-1.1193258
127	0xbf8e50eb	-1.1118444
128	0xbf9ede17	-1.2411526
129	0xbf839b29	-1.0281726
130	0xbf98be9a	-1.1933167
131	0xbf9f3c7f	-1.2440337
132	0xbf9561b7	-1.1670445
133	0xbf8a5db2	-1.0809844
134	0xbf9ea2de	-1.2393453
135	0xbf8ef486	-1.1168373
136	0xbf9a5717	-1.2057828
137	0xbf9c1132	-1.2192748
138	0xbf8a77ad	-1.0817772
139	0xbf8d7c77	-1.1053609
140	0xbf9a4a87	-1.2053994
141	0xbf90c613	-1.1310447
142	0xbf9859b6	-1.1902378
143	0xbf97d5b5	-1.1862093
144	0xbf8bbfef	-1.0917948
145	0xbf990bf4	-1.1956773
146	0xbf9810b8	-1.1880102
147	0xbf8eb1c2	-1.1147997
148	0xbf95b378	-1.1695395
149	0xbf9da257	-1.2315167
150	0xbf978484	-1.1837316
151	0xbf921702	-1.1413271
152	0xbf91caba	-1.1389992
153	0xbf953193	-1.1655754
154	0xbf9c83f5	-1.222777
155	0xbf957eab	-1.1679281
156	0xbf8a2cb2	-1.079489
157	0xbf92bdf2	-1.1464217
158	0xbf9f6c61	-1.245495
159	0xbf8e13bd	-1.1099774
160	0xbf95e1fd	-1.1709591
161	0xbf9c2a20	-1.2200356
162	0xbf8e4d24	-1.1117291
163	0xbf8d7fce	-1.1054628
164	0xbfa1aec8	-1.2631464
165	0xbf86dcd3	-1.053614
166	0xbf9efd20	-1.2420998
167	0xbf8dffff	-1.1093749
168	0xbf8c04e8	-1.0938997
169	0xbf949458	-1.1607771
170	0xbf99b31b	-1.2007784
171	0xbf8ade80	-1.0849152
172	0xbf9981ae	-1.19927
173	0xbf940883	-1.1565098
174	0xbf8783fa	-1.0587151
175	0xbf95b2f6	-1.169524
176	0xbf906806	-1.1281745
177	0xbf94ae3a	-1.161567
178	0xbfa03057	-1.2514752
179	0xbf8dc6ee	-1.1076334
180	0xbf8739fc	-1.056457
181	0xbf9048b3	-1.1272186
182	0xbf992cd4	-1.1966805
183	0xbf84940a	-1.0357678
184	0xbf9d8d0b	-1.2308668
185	0xbf9c4fda	-1.2211869
186	0xbf9016d2	-1.1256964
187	0xbf8e79c0	-1.1130905
188	0xbf9adb4d	-1.2098175
189	0xbf9500aa	-1.1640828
190	0xbf8df7d3	-1.1091255
191	0xbf976393	-1.1827263
192	0xbf91d656	-1.1393535
193	0xbf8f80f7	-1.1211232
194	0xbf993315	-1.1968714
195	0xbf94ac2d	-1.1615044
196	0xbf934e4f	-1.1508273
197	0xbf9ad069	-1.2094852
198	0xbf88a0b1	-1.0674039
199	0xbf937787	-1.1520852
200	0xbf95848d	-1.1681076
201	0xbf8ac408	-1.0841074
202	0xbf92fc71	-1.1483289
203	0xbf9b5615	-1.2135645
204	0xbf8bdcde	-1.0926778
205	0xbf9edfdc	-1.2412066
206	0xbf96247c	-1.1729884
207	0xbf950e2c	-1.164495
208	0xbf9664f4	-1.1749558
209	0xbf9bd77d	-1.2175137
210	0xbf8ff451	-1.1246434
211	0xbf9c8c3a	-1.2230294
212	0xbf9013d6	-1.1256053
213	0xbf94fd4b	-1.1639799
214	0xbf996275	-1.1983172
215	0xbf8f4c0f	-1.1195086
216	0xbf888c1f	-1.0667762
217	0xbf977bce	-1.1834657
218	0xbf96b9e4	-1.1775479
219	0xbf86d16b	-1.0532659
220	0xbf97d6dc	-1.1862445
221	0xbf9ed1ee	-1.2407815
222	0xbf8b3056	-1.0874126
223	0xbf916196	-1.1357906
224	0xbf9e98b9	-1.2390357
225	0xbf8d22a4	-1.1026196
226	0xbfa2eb8c	-1.2728133
227	0xbf8fdad7	-1.123866
228	0xbf89e03e	-1.0771558
229	0xbfa1817c	-1.261764
230	0xbf8ec1e3	-1.115292
231	0xbf898b9e	-1.0745733
232	0xbf9dc710	-1.2326374
233	0xbf964431	-1.173956
234	0xbf9132c8	-1.1343622
235	0xbf92869d	-1.1447331
236	0xbf95100b	-1.1645521
237	0xbf97a1bb	-1.1846231
238	0xbf90325b	-1.1265367
239	0xbf96ebb9	-1.1790687
240	0xbf8c3f4e	-1.0956819
241	0xbf96e06f	-1.1787242
242	0xbf9fcad4	-1.2483773
243	0xbf8b0c3c	-1.0863109
244	0xbf9306ce	-1.1486452
245	0xbf9f5d76	-1.2450397
246	0xbf8e1517	-1.1100186
247	0xbf9c262c	-1.2199149
248	0xbf9b4419	-1.2130157
249	0x3d20e355	0.0392793
250	0x3e87128d	0.2638134
251	0xbfd7c377	-1.6856526
252	0x3d00d52f	0.031453308
253	0x3e8c97fc	0.27459705
254	0xbfcbf4b4	-1.5934052
255	0x3b323978	0.0027194899

decoder_L1.bias f4 [618]
0	0xbeb5076f	-0.35357234
1	0x3ddfe994	0.10933223
2	0xbeafbaaa	-0.343221
3	0xbefb23a8	-0.4905064
4	0xc007c333	-2.121289
5	0xbf5c0831	-0.8595
6	0x3d866e50	0.06564009
7	0x3e4fceae	0.20293686
8	0xbf08932f	-0.53349584
9	0x3f06e9e4	0.5270064
10	0x3e47c900	0.19510269
11	0xbe2dd80a	-0.16976944
12	0xbf6382e8	-0.8887162
13	0x3d54c324	0.051943913
14	0xbf03f0e3	-0.5153944
15	0x3ebd4dec	0.36973512
16	0xbe5585c3	-0.20851807
17	0xbf190be1	-0.5978375
18	0xbe87b47f	-0.26504895
19	0xbd405833	-0.046959113
20	0xbeddb02c	-0.4329847
21	0x3d5422d5	0.05179103
22	0x3cc34b14	0.023839511
23	0xbe6dab98	-0.23209989
24	0x3d0ad866	0.03389778
25	0x3e025243	0.12726693
26	0xbf352b79	-0.7076946
27	0xbf440c17	-0.7658095
28	0xbe58e6ff	-0.21181868
29	0xbe138a8b	-0.14408319
30	0x3e414607	0.1887437
31	0xbf2f418c	-0.6845939
32	0x3d61c530	0.055119693
33	0xbf1bf630	-0.6092253
34	0xbeacd0d9	-0.33753088
35	0xbcab2368	-0.020890906
36	0xbf448db3	-0.76778716
37	0xbf0d5d5c	-0.5522058
38	0xbf793ac9	-0.97355324
39	0xbf485334	-0.7825196
40	0xbcbb9e90	-0.022902757
41	0xbf8b4200	-1.0879517
42	0xbe3a9305	-0.18220146
43	0x3d100903	0.035164844
44	0x3e3a5002	0.18194583
45	0xbf4cb809	-0.79968315
46	0x3e108810	0.14114404
47	0xbf0b8db5	-0.545131
48	0x3e0d0cea	0.13774458
49	0xbe7b4d7a	-0.24541274
50	0xbe6e293a	-0.23257914
51	0xbe78feae	-0.24315903
52	0xbea1044a	-0.31448585
53	0x3cad8daa	0.021185715
54	0xbf04875e	-0.51769054
55	0x3a857647	0.0010182344
56	0xbeb25a80	-0.3483467
57	0xbf45249f	-0.77009004
58	0x3e18ab93	0.149092
59	0xbf07e678	-0.5308604
60	0x3ddbe11b	0.10736295
61	0xbe5106e9	-0.20412792
62	0xbd9c80ef	-0.0764178
63	0x3db590d6	0.08865516
64	0xbe19354c	-0.14961737
65	0xbe9981e4	-0.2998191
66	0xbc17f32a	-0.009274283
67	0xbe80fafe	-0.25191492
68	0xbe22050b	-0.15822236
69	0xbe9e3dc9	-0.30906513
70	0x3dae20c6	0.08502345
71	0xbf69dedc	-0.9135568
72	0xbf64c8ea	-0.8936907
73	0xbf092645	-0.5357402
74	0xbf863e6e	-1.0487802
75	0xbf11091b	-0.5665452
76	0xbdf4cdb4	-0.11953297
77	0xbe1684d3	-0.14699106
78	0xbedfe829	-0.43731812
79	0xbd371019	-0.044693086
80	0xbf17bb3b	-0.59270066
81	0xbf349a32	-0.70547783
82	0xbf30eb58	-0.69109106
83	0xbedf0beb	-0.4356378
84	0xbf509e17	-0.81491226
85	0xbe7bd44b	-0.24592702
86	0xbf5a212f	-0.85206884
87	0xbf90e5fd	-1.1320187
88	0xbed0fcc1	-0.40817836
89	0xbf2a0c9f	-0.6642551
90	0xbf02177a	-0.5081707
91	0xbf9da349	-1.2315456
92	0xbd242a7c	-0.04007958
93	0xbe835aa2	-0.25655085
94	0xbf513c01	-0.81732184
95	0xbe311ee8	-0.17296946
96	0xbf5dc4cd	-0.8662842
97	0x3e820137	0.25391552
98	0x3e0d8343	0.13819604
99	0xbf07ba93	-0.53019065
100	0xbf21d54d	-0.63216096
101	0xbebdf6c4	-0.3710233
102	0xbc53f0e1	-0.012935848
103	0x3e90e0da	0.28296548
104	0xbede903a	-0.4346941
105	0xbed0f11e	-0.40808958
106	0xbe0f8d74	-0.14018804
107	0xbdf99c08	-0.12187964
108	0x3e84b509	0.2591937
109	0xbf062bd7	-0.52410644
110	0xbf340bf8	-0.7033076
111	0xbf1725ee	-0.5904225
112	0x3eb7fe22	0.35936075
113	0xbe574e04	-0.21025854
114	0x3d1ee501	0.038792614
115	0xbcd184d3	-0.02557603
116	0x3eb3fc30	0.3515334
117	0x3e8dca77	0.2769353
118	0xbd131c2a	-0.03591553
119	0xbdc940f9	-0.09826846
120	0xbf33d828	-0.70251703
121	0xbeb67e82	-0.35643393
122	0xbe949288	-0.29018044
123	0x3e993549	0.29923466
124	0x3cf09fa3	0.029372996
125	0x3e684543	0.22682671
126	0x3e2fe687	0.17177783
127	0xbebdfb34	-0.37105715
128	0x3e314ea0	0.1731515
129	0xbf074bb5	-0.52849895
130	0x3e3f8b15	0.187054
131	0xbec8d47c	-0.39224613
132	0xbf1bd110	-0.6086588
133	0xbe9a7737	-0.3016908
134	0xbf2553e8	-0.64581156
135	0xbeb7c4ed	-0.3589243
136	0x3e92bc9c	0.28659523
137	0xbeefb1bb	-0.46815285
138	0xbe9b6616	-0.30351323
139	0x3e87f272	0.2655216
140	0x3e3bc063	0.18335108
141	0xbf1eda46	-0.6205181
142	0x3e7382e7	0.23780404
143	0xbe8a5013	-0.27014217
144	0x3de4cd76	0.11172001
145	0xbea83fa8	-0.32861066
146	0xbecf3ab1	-0.40474465
147	0x3e6be3c4	0.23036104
148	0x3c842caa	0.016134579
149	0x3cdb77e8	0.026790574
150	0x3c8a8a3f	0.016911624
151	0xbf04999f	-0.5179691
152	0xbf465494	-0.77472806
153	0xbc57e14f	-0.013176276
154	0xbeecad50	-0.46225977
155	0xbf2265f0	-0.63436794
156	0xbf35b01d	-0.7097185
157	0x3df66cb7	0.120324545
158	0x3e335144	0.17511469
159	0xbf3960ed	-0.7241352
160	0x3e1c3be4	0.15257221
161	0x3d3354ae	0.04378193
162	0x3e5426b4	0.20717889
163	0xbf3a6c3a	-0.7282139
164	0xbf208878	-0.62708235
165	0xbec9b9ab	-0.39399466
166	0xbf2fe22e	-0.687045
167	0xbf3bc65f	-0.73349565
168	0xbf4cbfc4	-0.7998011
169	0xbf4f0cfd	-0.80879194
170	0x3df13086	0.11776833
171	0xbf270d7a	-0.6525494
172	0xbec3e5a2	-0.38261133
173	0xbca37498	-0.019953057
174	0xbf16e2d2	-0.5893985
175	0xbc77df27	-0.015128887
176	0x3e5eaf27	0.21746503
177	0xbe973597	-0.29533073
178	0xbf312a59	-0.6920524
179	0xbd27e847	-0.040993
180	0xbe7913bb	-0.24323933
181	0xbf3cdb7d	-0.7377241
182	0xbe508d4e	-0.20366403
183	0xbf218593	-0.63094443
184	0xbf28beac	-0.6591594
185	0x3e55abb7	0.20866285
186	0xbf644343	-0.89165133
187	0xbd0cf093	-0.034409117
188	0xbf3ef344	-0.74589944
189	0xbe4f6c93	-0.20256262
190	0xbf42b17d	-0.76052076
191	0xbf617cfc	-0.88081336
192	0xbf3e2884	-0.7428057
193	0xbe25f419	-0.16206397
194	0xbf0f204e	-0.5590867
195	0xbf77b850	-0.96765614
196	0xbd5424a3	-0.051792752
197	0xbf5d3658	-0.86411047
198	0xbf72285d	-0.9459284
199	0xbd34263e	-0.043981783
200	0x3c339f8c	0.010963332
201	0xbd599d3e	-0.053128473
202	0xbf4bd271	-0.79617983
203	0xbf301ad4	-0.68790936
204	0xbd35ac5b	-0.044353824
205	0xbf831a9f	-1.0242499
206	0x3e30bb60	0.17258978
207	0xbe4b6741	-0.19863607
208	0xbe27f268	-0.16401064
209	0xbf084ca0	-0.5324192
210	0xbf26d91d	-0.6517504
211	0xbe4d0e56	-0.20025
212	0x3c45e791	0.0120791355
213	0xbe6b6468	-0.2298752
214	0xbe46863b	-0.19387142
215	0xbf69cf16	-0.91331613
216	0xbdcf62a5	-0.10126237
217	0xbe4c81d1	-0.19971396
218	0x3e6d33ea	0.23164335
219	0xbe369eba	-0.17833987
220	0x3e37f936	0.1796616
221	0xbf2598a7	-0.64686054
222	0xbf369490	-0.7132044
223	0x3d8de5c5	0.06928591
224	0xbf4dcd05	-0.8039096
225	0x3e2106cd	0.1572525
226	0xbf76bc59	-0.96381146
227	0xbf2f7fc3	-0.68554324
228	0x3df782f6	0.12085526
229	0xbf3340b9	-0.70020634
230	0x3e4ec94c	0.20193976
231	0xbf5cf972	-0.86318123
232	0xbf229c39	-0.63519627
233	0xbea68f6e	-0.32531303
234	0xbf03d0c7	-0.51490444
235	0xbf052c83	-0.52021044
236	0x3c9587cd	0.018253231
237	0xbf75bd06	-0.9599155
238	0xbca97bec	-0.020688973
239	0x3e0eaec0	0.1393385
240	0x3d7c312a	0.061570324
241	0xbf890b42	-1.0706561
242	0xbe8aa8e4	-0.27081978
243	0xbf1fc47a	-0.62409174
244	0xbf3a9da2	-0.7289678
245	0xbf13ff00	-0.57810974
246	0xbea537ac	-0.32269037
247	0xbe77a218	-0.24182928
248	0xbf6cf1f8	-0.92556715
249	0x3d41e78c	0.04733996
250	0xbe32aa9b	-0.17447893
251	0x3e512d59	0.20427455
252	0x3df5aa39	0.11995358
253	0xbe214ba2	-0.15751508
254	0xbce1e16e	-0.027573314
255	0xbd8ec10e	-0.06970416
