saved models/ep_2_encoder_model.pth (torch, 8595 bytes, 2 tensors)

encoder_L1.weight f4 [3, 618]
0	0x3c321d38	0.010871224
1	0x3adfdf9d	0.0017080192
2	0xbd082871	-0.033241693
3	0x3e03a183	0.1285458
4	0x3fa958b5	1.3230196
5	0x3ec8d44e	0.39224476
6	0x3f0f833e	0.56059635
7	0x3e0e8462	0.13917688
8	0x3efb71f5	0.4911038
9	0x3f380a86	0.7189106
10	0x3f0cdb4e	0.5502213
11	0x3f071cc6	0.5277828
12	0xbcb741e9	-0.022370296
13	0x3efac39c	0.48977363
14	0x3dc199be	0.09453152
15	0x3f45c5ac	0.7725475
16	0xbcc9b218	-0.024621055
17	0x3dbc2d2a	0.09188302
18	0x3e0ebcc0	0.1393919
19	0xbd20e15a	-0.039277412
20	0xbbcc1299	-0.006227803
21	0x3e104318	0.14088094
22	0x3dac8480	0.0842371
23	0x3c880511	0.016603978
24	0x3d246f2b	0.04014508
25	0x3d481ac5	0.048853654
26	0x3e178c65	0.1479965
27	0x3d023039	0.03178427
28	0xbc2e6e45	-0.0106464075
29	0xbbd02a0d	-0.006352669
30	0x3d671efa	0.056426026
31	0x3dfdea2c	0.1239818
32	0xbbae95f3	-0.005327934
33	0xbd301960	-0.04299295
34	0xbd166671	-0.03671879
35	0x3d38cd5d	0.045117725
36	0xbbdaab95	-0.006673286
37	0x3cacfe6e	0.021117415
38	0x3d1f55e3	0.038900267
39	0xbc2ab01d	-0.010417965
40	0x3d8953c1	0.06705428
41	0x3e0cd69a	0.13753739
42	0x3d3ccef6	0.04609581
43	0xbd115dee	-0.03548997
44	0x3da842ec	0.08215889
45	0x3da4b42a	0.08042176
46	0x3ca7ce72	0.020484183
47	0xbcaf3371	-0.021386834
48	0xbce39db0	-0.027785152
49	0x3dad473e	0.08460854
50	0x3dd82ecf	0.10555803
51	0x3d4469b6	0.047952376
52	0xbb2c1f82	-0.0026263897
53	0x3d6b3389	0.057422195
54	0xbcbe1876	-0.023205023
55	0x3dbd1b34	0.09233704
56	0xbccc3e3c	-0.02493202
57	0xbd05e4d4	-0.03268893
58	0xbd02cdb1	-0.031934444
59	0x3df5cb42	0.12001659
60	0x3e1f1564	0.15535504
61	0x3d95b62f	0.073101394
62	0xbc0a86ee	-0.008455021
63	0xbd43570b	-0.047690433
64	0x3e111f4c	0.14172095
65	0x3d3f3c52	0.046688385
66	0xbb48f94b	-0.0030666168
67	0xbb952bf5	-0.004552359
68	0x3da24604	0.07923511
69	0x3c4b00ae	0.012390299
70	0x3e0237a8	0.12716544
71	0x3dbd31d6	0.09238021
72	0x3deb1e79	0.114804216
73	0x3d77361f	0.06035435
74	0x3da34942	0.07972957
75	0x3deadaf4	0.11467543
76	0x3dcb9712	0.09940924
77	0x3da9e5e4	0.08295801
78	0x3defe075	0.11712734
79	0x3e0b6c46	0.13615522
80	0xbd067f37	-0.032836165
81	0x3c2b2ee0	0.010448188
82	0x3df2d8bd	0.11857746
83	0x3fae73cd	1.362909
84	0x3fab0913	1.3362144
85	0x3fa34076	1.2754047
86	0x3fa97409	1.3238536
87	0x3fac11a2	1.3442881
88	0x3fa75f7f	1.3076018
89	0x3fa9beff	1.3261412
90	0x3fa42ffc	1.2827144
91	0x3fae9402	1.3638918
92	0x3fb18b18	1.3870573
93	0x3e9b1175	0.30286756
94	0x3eb13bc4	0.3461591
95	0x3e84f420	0.25967503
96	0x3e6fe0d4	0.23425609
97	0x3e5f7338	0.21821296
98	0x3e574647	0.21022902
99	0x3e6ed965	0.23325117
100	0x3e64a086	0.2232686
101	0x3e6a5d39	0.22887124
102	0x3e660b78	0.22465312
103	0x3ecbab6d	0.39779225
104	0x3ed55d6f	0.41672847
105	0x3ece6529	0.40311554
106	0x3ed908c6	0.42389506
107	0x3ed1d542	0.40983015
108	0x3ec8148f	0.39078185
109	0x3ed00989	0.40632275
110	0x3ed7a0fa	0.42115003
111	0x3ed3dbbc	0.41378582
112	0x3ecd78bb	0.40131173
113	0x3e9f1282	0.31068808
114	0x3ea6d4f1	0.32584336
115	0x3e9157c8	0.28387284
116	0x3e9cbe37	0.30613872
117	0x3ea4df0f	0.3220143
118	0x3ea5fbb4	0.32418597
119	0x3ea6caae	0.32576507
120	0x3ea2202d	0.31665173
121	0x3e9a8a61	0.301837
122	0x3e9ec28a	0.31007797
123	0x3eefe6a2	0.46855646
124	0x3ee65aed	0.44991246
125	0x3edab303	0.427147
126	0x3ef0b1dd	0.470107
127	0x3ef72d9e	0.4827699
128	0x3ee5e081	0.44897845
129	0x3ee7707d	0.4520301
130	0x3eed9392	0.4640165
131	0x3ee699fe	0.45039362
132	0x3ef7d7e9	0.48406914
133	0x3eda19f2	0.4259792
134	0x3ed0762d	0.4071516
135	0x3ec47696	0.38371724
136	0x3ec9d21f	0.39418122
137	0x3ed31c72	0.4123264
138	0x3ecea0fe	0.40357202
139	0x3eced107	0.4039385
140	0x3ed3ea30	0.41389608
141	0x3ecebc86	0.40378207
142	0x3eca286d	0.39483967
143	0x3eea2233	0.45729217
144	0x3ee56b51	0.44808438
145	0x3ee86ec6	0.45397013
146	0x3ee78d01	0.45224765
147	0x3ee388a3	0.44440183
148	0x3ee961a8	0.45582318
149	0x3eddda4f	0.4333062
150	0x3ede5af0	0.43428755
151	0x3ee6145a	0.44937402
152	0x3ee5ece5	0.449073
153	0x3ea33004	0.3187257
154	0x3e9c1ead	0.30492154
155	0x3ea035f6	0.3129117
156	0x3e91e27b	0.28493103
157	0x3e9559ab	0.29169974
158	0x3e9c7a16	0.30561894
159	0x3e9ab9e2	0.30219942
160	0x3e95cf6b	0.2925981
161	0x3ea0a724	0.31377518
162	0x3e9f54b3	0.31119308
163	0x3ee1122e	0.43959183
164	0x3eebbeca	0.46043998
165	0x3ee2357b	0.44181427
166	0x3ed76675	0.42070356
167	0x3ee4fae6	0.4472267
168	0x3ee0babb	0.43892464
169	0x3ee6d5c5	0.45084968
170	0x3edde612	0.43339592
171	0x3edcfe74	0.43162882
172	0x3edd01d3	0.43165454
173	0xbc94325d	-0.018090421
174	0xbc94870f	-0.018130807
175	0x3db4bcd0	0.088250756
176	0x3daa0545	0.08301786
177	0x3d3f55ab	0.04671256
178	0x3dded789	0.10880954
179	0x3deae928	0.11470252
180	0x3c17fb0a	0.009276161
181	0x3d96f419	0.07370777
182	0x3e120456	0.14259467
183	0x3dbce744	0.09223798
184	0x3e1bed71	0.15227295
185	0x3da5497e	0.08070658
186	0x3d971cb1	0.07378519
187	0x3dff8f26	0.12478475
188	0x3e09410c	0.1340372
189	0x3d926f0d	0.071500875
190	0x3d4281af	0.047486957
191	0x3dfcdc43	0.12346699
192	0xb93b5cef	-0.0001786833
193	0x3d8fe0f2	0.07025327
194	0xbce2abd4	-0.027669825
195	0x3dfabdd8	0.12243241
196	0x3c9b39e9	0.018948512
197	0x3d66e345	0.056369085
198	0x3ded668d	0.11591826
199	0x3cf81eda	0.030288149
200	0x3db3fa85	0.08788017
201	0xbd006791	-0.03134877
202	0x3d6106be	0.05493807
203	0xbd23b7a8	-0.03997007
204	0x3e0673b0	0.13130069
205	0x3daee9d5	0.08540694
206	0x3db38947	0.08766418
207	0x3c33531a	0.010945106
208	0x3bc0b9ad	0.0058815093
209	0xbc5ba7f8	-0.013406746
210	0xbcd54081	-0.026031734
211	0x3d51d4f8	0.051228493
212	0x3cc5324e	0.024071839
213	0xbcf977df	-0.030452667
214	0x3e1c538a	0.15266243
215	0x3e1846c3	0.14870743
216	0xbb94ea26	-0.004544514
217	0x3de7d775	0.11320392
218	0x3cf9f5bf	0.030512689
219	0x3d4a1054	0.049331978
220	0x3db79c20	0.08965325
221	0xbd0064a1	-0.031345967
222	0xbcc7fe03	-0.024413114
223	0x3e10f90e	0.14157507
224	0x3dc49af1	0.09599865
225	0xbd0cfb1e	-0.03441917
226	0x3c1ff8f5	0.009763946
227	0x3daf82a8	0.085698426
228	0x3dcb2f7e	0.09921168
229	0x3c9c25be	0.019060966
230	0x3e009bd2	0.1255944
231	0x3d93781f	0.07200646
232	0xbb8dc7a6	-0.0043267785
233	0x3d496cde	0.04917609
234	0x3c717d35	0.014739324
235	0x3de55daf	0.11199509
236	0x3ff29b54	1.8953652
237	0x3dc743d6	0.097297356
238	0xbf5e677f	-0.8687667
239	0xbf0d707f	-0.5524978
240	0x3e026526	0.12733898
241	0x3e0f2a48	0.13980973
242	0x3dc48899	0.095963664
243	0x3dc8aa2a	0.09798081
244	0x3b1d86d5	0.0024036665
245	0x3e173ad8	0.14768541
246	0x3e02d94f	0.12778209
247	0xba147350	-0.0005662935
248	0x3dc35913	0.09538474
249	0x3db552ef	0.08853709
250	0xbb18fb80	-0.0023343265
251	0x3b82a195	0.0039865472
252	0x3ca6b128	0.020348147
253	0x3e0b6419	0.13612403
254	0xbbf6db6c	-0.0075334813
255	0x3deb576e	0.11491285

encoder_L1.bias f4 [3]
0	0x3f86a306	1.0518501
1	0x3f88ccc1	1.0687486
2	0x3f8eed23	1.1166118
