saved models/ep_3_decoder_model.pth (torch, 11027 bytes, 2 tensors)

decoder_L1.weight f4 [618, 3]
00000000: b70b 97bf 025c adbf 6a3d b1bf e5f8 94bf
00000010: ac81 a1bf d7eb b1bf 08a1 98bf 2459 a8bf
00000020: 60dc acbf 4a99 97bf 0648 abbf bfc7 afbf
00000030: cb83 0a3f 4bef cb3f 0411 7ac0 3c02 fabf
00000040: cf2f 87c0 02a0 f13f e956 8dbe 44c3 41bf
00000050: 41b4 12be 0181 8ebf bd0d afbf 4554 b0bf
00000060: 0c3d 15bf 1e09 9fbf bbd3 863e 48e2 08be
00000070: c4fd ddbe a893 0bbf a3a0 8cbe 77b2 44bf
00000080: d9f4 18be 69c3 8cbe 4f32 3cbf 75b5 fcbd
00000090: 4758 9bbf e3c3 a8bf 3112 b0bf 1481 19bf
000000a0: 08c4 aebf 56a2 853e 722c 9ebf 50fa a2bf
000000b0: 0415 b3bf b4b3 f3bd 2e34 d7be 855c 06bf
000000c0: 72a2 97bf 05c2 a5bf 1333 b0bf f968 9abf
000000d0: 6a9e aebf 8f96 adbf 7fe2 96bf 039f acbf
000000e0: 1b33 adbf e73e a1bf 9bfc a5bf ed00 a9bf
000000f0: 2931 98bf fc17 afbf 6348 afbf 1e53 93bf
00000100: 942d a2bf 0416 b3bf 710d 95bf a379 aebf
00000110: d7e8 a9bf 324d 9fbf 7dbf a8bf 0b84 b0bf
00000120: 76d7 8fbf 4cac b2bf e966 b1bf 868f 9fbf
00000130: 823b a4bf 4a28 b2bf 2ddb 9abf 65e4 a8bf
00000140: 9186 acbf 1723 9bbf 79cf a5bf 8981 b6bf
00000150: 88c5 97bf 1fa7 a9bf 7818 b0bf c445 a0bf
00000160: 5f65 a2bf 837a b6bf 1879 95bf d0c1 a0bf
00000170: be43 b7bf dcc6 9bbf 50b7 a7bf 47a6 aebf
00000180: d9f8 93bf bddf acbf 1687 abbf 7592 90bf
00000190: d9f5 a9bf e2d8 afbf 3488 a3bf 619c a9bf
000001a0: f146 a9bf 7902 96bf f6b8 b0bf e234 a7bf
000001b0: 2f1a a0bf cd26 a9bf c4eb aabf 15a6 9fbf
000001c0: 830e acbf d546 aebf df1d 9dbf 6da3 a5bf
000001d0: a7c4 b3bf 354d 9dbf b941 a7bf 8f54 acbf
000001e0: 945e 98bf 7fc1 a4bf 5dee b2bf 80ed 97bf
000001f0: 142f a6bf 44b8 acbf 6d38 9bbf 811e a2bf
00000200: 1e04 b5bf ea3c 91bf d7b6 abbf b100 b6bf
00000210: f4a4 a1bf c3ed 9fbf 5036 b6bf 7297 9bbf
00000220: 1a5f adbf 5cb8 b3bf d298 96bf 8214 a1bf
00000230: 3bab b0bf 643b 9dbf 8697 abbf a633 b0bf
00000240: 8cf6 96bf 2690 aabf 3073 aebf cc79 9bbf
00000250: 3e75 a9bf 7531 b5bf 0299 a1bf 679a a4bf
00000260: d21e a9bf 5139 a1bf b789 afbf 2f64 aebf
00000270: 7915 95bf 0c2c a4bf 7f00 b4bf 4d6d 98bf
00000280: a6ba a8bf 0512 b2bf ebeb 98bf 7db0 9fbf
00000290: abdd b5bf cd6b 94bf d161 b1bf 536b a7bf
000002a0: a203 98bf 62f6 a6bf 8a5a b0bf bc0a 96bf
000002b0: a557 aabf 3685 aabf 786c 93bf f986 a7bf
000002c0: 91cb a7bf e1f2 a0bf 28e3 b2bf 7010 a8bf
000002d0: 6782 94bf 3e4b a4bf fab3 b0bf 2805 92bf
000002e0: cead afbf a171 b3bf 366d 9cbf 38e8 a2bf
000002f0: 7a56 b2bf 19f2 9fbf 0279 a1bf ed6d aebf
00000300: 1e25 9dbf 2ce1 a2bf da39 b0bf cad5 9ebf
00000310: 470d a5bf 38b9 b0bf 3293 94bf 0736 a6bf
00000320: 8896 abbf d001 97bf b1a8 a5bf 2ce8 b1bf
00000330: 3fe9 98bf a477 b1bf fcb5 aebf bb21 a0bf
00000340: ddee a8bf 46c3 b2bf 5ac3 9bbf 67b6 aebf
00000350: 23cc a8bf 6c3a a1bf e2ca acbf 5635 a9bf
00000360: 595e 94bf b9b2 a8bf 8ff3 acbf 937a 92bf
00000370: 7e04 a9bf 07ce b3bf 4684 95bf 15a5 a2bf
00000380: 2898 b2bf ed5a 9abf 104e b5bf eda9 a9bf
00000390: 8053 97bf d2ea b3bf c380 a8bf 34cc 96bf
000003a0: 5e69 b0bf f8c4 aebf 7bab 9dbf 5768 a6bf
000003b0: cecd adbf 4115 a3bf f676 a4bf 2e07 afbf
000003c0: 4492 97bf 0574 a8bf ef97 b4bf 4eba 97bf
000003d0: 0574 a6bf 4a0f b6bf 6741 98bf ab28 acbf
000003e0: cc57 b0bf a719 903d d0e9 3d3e 48c0 04c0
000003f0: 01bd 383d 02de 243e 024c e0bf 80f5 b4bc
-1.180045 -1.3543704 -1.3846867 -1.1638457 -1.2617698 -1.3900098 -1.1924143 -1.3152204
-1.3504753 -1.1843655 -1.3381355 -1.3732833 0.5410735 1.5932401 -3.9072886 -1.9531932
-4.224586 1.8876956 -0.2760537 -0.75688577 -0.14326574 -1.1133119 -1.3676068 -1.3775717
-0.58296275 -1.2424657 0.26333413 -0.1336757 -0.4335767 -0.5452218 -0.27466306 -0.76834816
-0.14937152 -0.27492836 -0.73514265 -0.12339298 -1.2136315 -1.318478 -1.3755552 -0.5996258
-1.3653574 0.26100415 -1.2357314 -1.2732639 -1.3990788 -0.1189951 -0.42031997 -0.52484924
-1.1846449 -1.2949835 -1.3765587 -1.2063285 -1.3642094 -1.3561572 -1.1787871 -1.3486027
-1.3531221 -1.2597321 -1.2967714 -1.3203408 -1.1890002 -1.3679194 -1.3693966 -1.150974
-1.2670159 -1.3991094 -1.1644727 -1.363087 -1.3274182 -1.2445433 -1.3183438 -1.3790296
-1.1237628 -1.3958831 -1.3859531 -1.2465675 -1.283066 -1.3918545 -1.2098137 -1.31947
-1.3478566 -1.2120084 -1.2953941 -1.4258281 -1.1857157 -1.3254126 -1.3757467 -1.2521291
-1.2687186 -1.4256138 -1.167758 -1.2559147 -1.4317548 -1.2170062 -1.3102818 -1.3644494
-1.1560317 -1.350578 -1.34006 -1.1294695 -1.3278152 -1.3738062 -1.2775941 -1.3250848
-1.3224775 -1.1719505 -1.3806446 -1.3063014 -1.2507991 -1.3214966 -1.33532 -1.2472559
-1.3441929 -1.3615366 -1.2274741 -1.2940499 -1.4044389 -1.2289187 -1.3066932 -1.3463305
-1.1903863 -1.287155 -1.3978993 -1.1869354 -1.2983117 -1.3493733 -1.2126595 -1.2665559
-1.4141881 -1.1346714 -1.3415173 -1.4218961 -1.2628465 -1.2494434 -1.4235325 -1.2155592
-1.3544648 -1.4040637 -1.1765387 -1.2584383 -1.3802255 -1.228375 -1.3405616 -1.3765762
-1.179399 -1.3325241 -1.3628902 -1.2146544 -1.3238904 -1.4155718 -1.2624819 -1.285962
-1.3212531 -1.2595617 -1.3713902 -1.3624324 -1.1647178 -1.2825942 -1.4062651 -1.1908356
-1.318196 -1.3911749 -1.1946996 -1.2475735 -1.4208273 -1.1595398 -1.3857976 -1.3079628
-1.1876109 -1.304394 -1.377763 -1.1722026 -1.3307997 -1.3321903 -1.1517477 -1.3088065
-1.3108999 -1.2574121 -1.3975573 -1.3130016 -1.1602296 -1.2835462 -1.3804924 -1.1407824
-1.3724916 -1.4019052 -1.2220829 -1.2727118 -1.393264 -1.2495757 -1.2615054 -1.3627297
-1.2276952 -1.2724967 -1.3767655 -1.2408993 -1.2894677 -1.3806524 -1.160742 -1.2985238
-1.3405313 -1.1797428 -1.2942106 -1.3898978 -1.1946181 -1.3864636 -1.3649287 -1.2510294
-1.3197895 -1.3965843 -1.2168992 -1.3649415 -1.3187298 -1.2595954 -1.3499415 -1.3219402
-1.1591293 -1.3179542 -1.3511828 -1.1443657 -1.3204496 -1.404725 -1.1680992 -1.2706629
-1.3952684 -1.2058998 -1.4164448 -1.3254982 -1.1822357 -1.4056036 -1.3164295 -1.1781068
-1.3782156 -1.365386 -1.2317957 -1.3000592 -1.3578432 -1.2740861 -1.2848804 -1.3674066
-1.1841512 -1.3160406 -1.4108866 -1.1853731 -1.3004156 -1.4223416 -1.1894959 -1.3449911
-1.3776793 0.07036143 0.18546224 -2.074236 0.045102123 0.16100314 -1.7523196 -0.02208972

decoder_L1.bias f4 [618]
00000000: ed29 c1be 84a7 ae3d ecfd b9be 92f0 05bf
00000010: ff66 46c0 21e7 06c0 1a83 713f 4076 373e
00000020: 8c06 78be 9bb5 cb3f dd5d 893f 0aba 313f
00000030: 2000 6cbf 67d0 c63e 2287 0cbf 9a34 b33f
00000040: 9d58 71be 84f2 21bf 4de0 95be adc9 8fbd
00000050: d8ef ebbe b150 083d 177e baba 6b1c 83be
00000060: 9482 2c3c 1a26 d93d 15df 3ebf 1d8c 4cbf
00000070: d757 74be 01e8 2cbe 4e22 283e 47aa 37bf
00000080: b620 ff3c 5afe 21bf dc57 b8be c1d0 37bd
00000090: b1ad 4cbf 24cd 15bf 170a 81bf aa5e 52bf
000000a0: 81ab 43bd 083b 90bf c9ba 52be 1c7a 403c
000000b0: 15ce 213e eb01 55bf 512c f23d ba9d 14bf
000000c0: ccb8 f43d 032f 8bbe 9d6a 81be bfa2 89be
000000d0: 7a12 abbe b2a8 3e3a 2643 0bbf 3216 cdbc
000000e0: 4363 bfbe 8a96 4cbf d2d9 013e 7515 11bf
000000f0: e070 a63d f7de 69be b8ea cebd 1832 8c3d
00000100: e150 30be 5829 a3be 9d75 03bd cc4d 8dbe
00000110: 7836 3bbe 7cc4 aabe e9fd 803d e74f 73bf
00000120: 789b 6cbf e25e 10bf 4013 89bf 1f81 1abf
00000130: fa09 15be 2d52 30be 8d6a f1be fb9b 8bbd
00000140: 8960 1ebf a139 3dbf 2d16 36bf bf42 46bf
00000150: d052 92bf ca69 e2be 473e 95bf 3da8 babf
00000160: b243 22bf bae8 75bf 70a7 38bf f57c cfbf
00000170: 4389 f8be d064 a4bf 9ef5 b5bf 9308 aebe
00000180: 0488 85bf 1e78 e13d c369 99bc e81c 39bf
00000190: 9ec3 4fbf 4e4d 08bf 4071 16be c58d f63e
000001a0: 67ea 67be 7e6e 40be 59bc a43d bb05 bf3d
000001b0: 2dc9 f93e 6a5a a3be e4b8 f4be c0d8 b6be
000001c0: 9193 163f dab0 52be 36a9 393d ee1e 93bc
000001d0: cc10 b63e aa71 883e 3a7e 0abd d7c3 bcbd
000001e0: e48c 37bf 5a80 bbbe 927a 91be e35b 173f
000001f0: 5795 b53e 8e16 023f 6c81 f33e 0de2 88bd
00000200: 4205 ec3e c864 51be 9c67 fa3e a145 b6bd
00000210: 4bb8 9bbe 7366 7fbd 3945 d3be fa7d 0bbe
00000220: 6f80 f73e 507b 86be b5e1 a7bd a6ef f13e
00000230: 510c cb3e 3820 bdbe c3b3 e03e 8329 75bd
00000240: 41c0 a73e 738c eabd 626f 4ebe b86c dc3e
00000250: cc3e 703e 0519 803e d5bf 523e 531e 9dbe
00000260: c941 0bbf b7a9 5dbc aca3 dcbe 1a85 25bf
00000270: d595 33bf de60 093e 2c18 4a3e ee34 34bf
00000280: 2781 293e fa51 9b3d bb6a 6e3e d19a d3be
00000290: 1fbd a1be 3d17 aebd 920a bdbe 2d63 d7be
000002a0: 9f8f f5be 853f fcbe 7868 d73e 98a4 abbe
000002b0: 591a 96bd 65cb 33bd f981 20bf 4058 1fbd
000002c0: ba62 443e 0739 a5be f02c 3abf 01ba 85bd
000002d0: a2fd 88be feed 43bf e4e0 65be c07c 2abf
000002e0: 7302 32bf 0cca 3d3e ca56 6abf d5f7 6fbd
000002f0: 9694 45bf debb 69be 8ee4 4abf 6c79 6abf
00000300: 83a1 46bf 4b12 40be 2087 18bf f371 7fbf
00000310: 0b7e 9abd 481d 65bf 6fe2 7bbf a0ab 87bd
00000320: 4ecc 56bc be65 9fbd 90b2 53bf 74e8 38bf
00000330: bb1a 88bd 7b02 87bf e7c5 173e 9b38 67be
00000340: a1b3 38be faed 10bf 1047 2dbf ca64 61be
00000350: f52f 6ebc c7c2 7cbe caf3 5ebe 0ec6 72bf
00000360: d963 efbd 70ef 67be c3b5 583e 7b01 4fbe
00000370: 7234 1d3e aeb9 2ebf 8361 3dbf d1c2 3f3d
00000380: a938 54bf fcfe 0b3e a5ea 7ebf af27 39bf
00000390: 7fc3 be3d 026b 3abf 1583 353e e9d5 63bf
000003a0: 6011 29bf 6f8f b1be d385 0cbf e431 0ebf
000003b0: ab7a 6abe f36d 7cbf 90ec 65bf cf70 543f
000003c0: 4d2b 243d 465f 8cbf 806b 97be 4ab2 26bf
000003d0: d9da 43bf 729d 1dbf 3f4c b4be faeb 89be
000003e0: f9a4 73bf 499f b63c 7551 4bbe bcc4 3a3e
000003f0: 31b1 ce3d 1540 3bbe 9be9 38bd 6dd2 c4bd
-0.377273 0.08528045 -0.3632654 -0.52320206 -3.1000364 -2.107857 0.9434067 0.17916203
-0.24221247 1.5914797 1.073177 0.694245 -0.9218769 0.38830873 -0.54893696 1.4000428
-0.2356896 -0.63260674 -0.2927269 -0.070208885 -0.46081424 0.03328008 -0.0014228252 -0.2560762
0.010529179 0.106029704 -0.74559146 -0.79901296 -0.23861633 -0.16885377 0.16419336 -0.717442
0.031143527 -0.63278735 -0.3600453 -0.044876818 -0.7995253 -0.58516145 -1.0081204 -0.82175696
-0.04777098 -1.1268015 -0.20579065 0.011747863 0.1580127 -0.8320605 0.11824859 -0.5805317
0.1194931 -0.27184305 -0.25276652 -0.26881978 -0.33412534 0.00072730624 -0.54399335 -0.025034998
-0.37380418 -0.79917204 0.12680748 -0.56673366 0.08126998 -0.2283896 -0.10103363 0.06845492
-0.17218353 -0.3186748 -0.032094587 -0.27598417 -0.18282497 -0.3335303 0.062984295 -0.95043796
-0.92424726 -0.5639478 -1.0709 -0.60353273 -0.14554587 -0.17218848 -0.47151604 -0.0681686
-0.6186605 -0.7391606 -0.7112759 -0.77445596 -1.1431522 -0.44221336 -1.165963 -1.4582592
-0.63384545 -0.9605824 -0.7213049 -1.6210009 -0.48542222 -1.2843266 -1.4215581 -0.33990917
-1.0432134 0.11009239 -0.018727189 -0.7230973 -0.81157863 -0.5324296 -0.14691639 0.48155037
-0.22648011 -0.1879215 0.08043737 0.09327265 0.48786297 -0.31904918 -0.4779731 -0.35712242
0.5881892 -0.20575276 0.045327388 -0.017959084 0.3555969 0.2664922 -0.033811785 -0.09217041
-0.7169936 -0.36621362 -0.28413826 0.59124583 0.354655 0.50815666 0.4755968 -0.06683741
0.4609776 -0.20448601 0.48907173 -0.088999994 -0.30414042 -0.062353563 -0.4126375 -0.13622275
0.48340175 -0.26265955 -0.08197347 0.4725315 0.39657834 -0.36938643 0.43887147 -0.05985404
0.32763866 -0.1145257 -0.20159677 0.43051696 0.23461455 0.25019088 0.2058099 -0.30687198
-0.54397255 -0.013529233 -0.43093622 -0.6465622 -0.701505 0.13415858 0.19735783 -0.70393264
0.16553174 0.07583995 0.23282902 -0.41329053 -0.315896 -0.08500526 -0.36922127 -0.42067853
-0.47961137 -0.49267212 0.4207189 -0.33524013 -0.07329244 -0.043895144 -0.6269832 -0.03890252
0.19178286 -0.3227007 -0.7272482 -0.06529618 -0.26756006 -0.7653502 -0.2244907 -0.66596603
-0.6953499 0.18534106 -0.9153868 -0.05858596 -0.7717985 -0.22825572 -0.79254997 -0.91591525
-0.775902 -0.18756978 -0.59581184 -0.9978325 -0.07543572 -0.89497805 -0.98392385 -0.06624532
-0.0131102335 -0.07783078 -0.8269434 -0.72229695 -0.066457234 -1.0547632 0.14821588 -0.22580187
-0.18037273 -0.56613123 -0.6768656 -0.22011104 -0.014537801 -0.24683677 -0.21772686 -0.9483346
-0.11688966 -0.22649932 0.21163087 -0.20215409 0.15352038 -0.68252075 -0.73976916 0.04681665
-0.82898957 0.13671488 -0.9957679 -0.7232618 0.09314632 -0.7281953 0.17725785 -0.88998276
-0.6604214 -0.34679744 -0.548917 -0.5554488 -0.22898357 -0.9860527 -0.8981409 0.8298463
0.040080357 -1.0966575 -0.29574203 -0.651158 -0.7650581 -0.6156837 -0.3521442 -0.26937848
-0.95173603 0.02229275 -0.19855292 0.1823911 0.1009239 -0.18286164 -0.04514466 -0.09610448
