saved models/ep_3_encoder_model.pth (torch, 8595 bytes, 2 tensors)

encoder_L1.weight f4 [3, 618]
00000000: 6a90 1d3d 3d09 cc3c 024c 7dbd 2748 f33d
00000010: 2cee db3f a643 013f 112a 363f d924 253e
00000020: e349 273f c59f 7e3f cef4 353f 6a9d 2e3f
00000030: fd48 353b 24a3 2c3f 9638 f23d 1a8a 823f
00000040: 7d47 813b f64a f23d c874 273e 054c 3dbc
00000050: c979 6b3c 0720 173e c536 d83d 995f 103d
00000060: 901b 8e3d bcb9 4b3d e40c 353e fa12 713d
00000070: 94f4 973c 5f51 c03c 3c8d a33d 4ec9 053e
00000080: 0007 c13c 17c2 98bd fd45 87bc 584b aa3c
00000090: 5b6e 973c f243 2e3d 0532 8a3d 25c8 833c
000000a0: fcb3 ad3d 46ab 123e 3fc0 593d 30dd d3bb
000000b0: 4a82 e43d 74c7 d43d 93aa 003d e52a 0b3c
000000c0: 956e 6bbd 3867 e83d 0a74 9d3d ca0d 963d
000000d0: 6cad 03bd 6fea d33c f3a7 41bd c69e f03d
000000e0: 2c90 183b b27c 79bd ac69 7cbd ce1a 0f3e
000000f0: 39fd 373e d7a2 cd3d d3b0 2d3c 2736 88bc
00000100: 6034 053e f9dc e83c 1640 0cbd 9c99 553c
00000110: 43f1 d13d b9f6 9a3c 8e0c d73d 35c4 ec3d
00000120: 4ee4 103e c89a 3d3d 858e 663d 87c9 073e
00000130: 2d3c ff3d b22c e43d 424f 0a3e cb01 293e
00000140: ec86 a7bb d540 f73c c00a b63d 2813 e03f
00000150: e569 d23f b5a0 b63f 6250 c73f 3096 cf3f
00000160: 073f c23f c46c cc3f fb75 b53f 5b23 db3f
00000170: 3b38 f73f a70b 963e d982 bc3e f2bb b53e
00000180: 00d1 a13e 0fa0 b53e 4c75 a53e 27fa 9e3e
00000190: 31b6 a13e 06f2 b03e e749 bc3e 99f0 e03e
000001a0: c742 f23e 0b10 f03e 2918 f63e 57f9 ec3e
000001b0: 0fea ee3e 9809 eb3e af1f f23e b35b f23e
000001c0: ea92 e73e 4759 cd3e 1cba c13e 1b18 bc3e
000001d0: 459b bb3e 0999 c23e bb46 c33e 9a9f cf3e
000001e0: a804 bf3e e03c c53e 12d9 c23e b1a5 073f
000001f0: d4c0 083f cfce 063f eff8 143f ec70 0d3f
00000200: fcff 0e3f 55ec 0e3f 9b9f 0e3f b28f 0e3f
00000210: 0c39 103f 82d8 e63e 2e29 f23e eeac ea3e
00000220: e363 ed3e 5d3f ed3e f5e0 eb3e f5b5 ec3e
00000230: 981a ea3e 2e9a f53e 00b0 f13e 483a 023f
00000240: 928c f53e c8b3 043f 920a 013f 85ff 003f
00000250: 3c71 093f cde5 f93e 9fe0 f93e 2146 073f
00000260: 2614 f93e e229 c93e b97a c53e 0a54 bd3e
00000270: 1263 c13e 6ea2 bf3e b989 bd3e cffe bf3e
00000280: ee2e c53e 5d68 c63e 12ce cd3e 1d00 f93e
00000290: bb2a 083f 9740 013f 134f 0b3f 6617 0e3f
000002a0: c9ab 043f fa15 023f 68d6 083f baaf 043f
000002b0: 8fae 073f 77ec 0c3c 5149 353c d804 eb3d
000002c0: 6276 e53d 0bdd 9c3d cd23 083e 7783 103e
000002d0: 21e0 853c 7f3c 7e3d a446 2e3e 7f47 e13d
000002e0: 7f49 2e3e b254 493d 657e c03d 5c76 063e
000002f0: df71 143e dbb5 cc3d 99bb 943d 20fe 1b3e
00000300: 9597 cc3c ebf7 cc3d fa10 6e3a 165b cd3d
00000310: 06fa 193d 7a10 a43d c1f3 133e f673 533d
00000320: cf0d e43d 6c26 8cbb 6957 a83d 3279 4fbc
00000330: 8499 db3d 5292 bc3d a5c8 ef3d 80f9 0b3d
00000340: a3bc babc c291 943b 176e 35bd 0dd3 b13c
00000350: 1761 5a3d edbf 5cbd f414 343e 42c7 353e
00000360: d7c0 07bd 99ea 0b3e 0cbf 863c 778e 983d
00000370: 0add e43d df29 e6bb df96 57bd 451e f03d
00000380: 13cb 873d e6f0 34bd ca74 2e3c c327 e33d
00000390: bdda fa3d c51e 163d 4a1f 143e 84a8 bd3d
000003a0: d8ad 1b3b 6854 a43d 0924 143d 4d9b 0c3e
000003b0: 429f 2f40 e117 ff3d a44c bebf 8414 70bf
000003c0: db4c 033e 9552 ee3d 3801 d33d c3f4 873d
000003d0: 5b76 f13c 5e7e 343e ce59 203e 5d60 e53c
000003e0: 7889 ed3d e836 f13d 4493 cc3c 5b87 c6bc
000003f0: 9b0d 19bc 5d7b 1e3e f050 14bd 59b5 0d3e
0.038467802 0.024906749 -0.061840065 0.11878996 1.7182059 0.5049385 0.7115794 0.16127338
0.6534712 0.9946254 0.7107667 0.68208945 0.0027661913 0.6743643 0.11827199 1.0198395
0.0039452896 0.11830704 0.16353142 -0.011553769 0.014372298 0.14758311 0.105573215 0.03524742
0.06938851 0.049737677 0.17680699 0.058855988 0.018549241 0.0234763 0.07985923 0.13065073
0.023562908 -0.07458895 -0.016512865 0.02078788 0.018485239 0.042545266 0.06747822 0.016086647
0.08481595 0.14323148 0.053161856 -0.0064655766 0.11157663 0.10389605 0.031412672 0.008494114
-0.057478506 0.113478124 0.07688148 0.07326849 -0.03214781 0.025868623 -0.04727931 0.11749034
0.0023279293 -0.060909934 -0.061624214 0.13975069 0.1796769 0.10040825 0.01060124 -0.016627384
0.1300826 0.02842568 -0.034240805 0.013037112 0.10251095 0.018916475 0.105004415 0.11560861
0.14149591 0.04629019 0.05628826 0.1326047 0.124626495 0.111413375 0.13506797 0.1650459
-0.0051125195 0.030182282 0.08888769 1.7505846 1.6438566 1.4267794 1.5571406 1.6217709
1.5175484 1.5970693 1.417663 1.7120165 1.9314035 0.29305765 0.3681858 0.35494953
0.31604767 0.35473678 0.32316053 0.31050226 0.31584314 0.3455965 0.36775133 0.4393356
0.47316572 0.4688724 0.48065308 0.4628398 0.46662948 0.45905757 0.47289798 0.47335586
0.45229274 0.40107176 0.37837303 0.3673714 0.366419 0.38007382 0.381399 0.40551454
0.3730824 0.38523006 0.38056237 0.529872 0.5341923 0.52659315 0.5819234 0.5525043
0.5585935 0.55829364 0.5571229 0.5568801 0.56337047 0.45087057 0.47297043 0.4583506
0.4636527 0.46337405 0.46070066 0.46232572 0.45723414 0.47969192 0.4720459 0.5087018
0.4795881 0.51836824 0.50406754 0.5038989 0.53688407 0.48808137 0.48804185 0.52841383
0.48648185 0.39289767 0.38570192 0.3697818 0.37770897 0.37428612 0.37019137 0.3749909
0.38512367 0.38751498 0.40196282 0.486329 0.531902 0.5048918 0.5441753 0.55504453
0.51824623 0.50814784 0.5345216 0.5183064 0.5300073 0.0086012995 0.011064843 0.11475533
0.1120422 0.07659348 0.13294907 0.1411265 0.016342225 0.062069412 0.17019135 0.10999965
0.17020224 0.049153037 0.09399108 0.13131088 0.14496563 0.09995624 0.07262344 0.1523366
0.024974624 0.10008224 0.0009081509 0.10027139 0.037591957 0.08010955 0.14448453 0.05162426
0.11135446 -0.004277041 0.08219797 -0.012663173 0.1072264 0.09207596 0.11708192 0.03417349
-0.022795027 0.0045339772 -0.044294443 0.021707082 0.05331525 -0.053893972 0.17586118 0.17751792
-0.03314289 0.1366371 0.01644852 0.07449048 0.11174972 -0.0070240344 -0.052634116 0.117245235
0.0663053 -0.04417505 0.010647962 0.11091568 0.12248752 0.036650438 0.14465061 0.092606574
0.0023754742 0.08023912 0.03616718 0.13731118 2.7440953 0.124557264 -1.4867139 -0.93781304
0.12822287 0.11636845 0.10302967 0.066384815 0.029475382 0.1762633 0.15659258 0.028000051
0.11598486 0.11778051 0.024972565 -0.024234464 -0.009341623 0.15476747 -0.03621 0.1383871

encoder_L1.bias f4 [3]
00000000: 7ad1 b73f 185c aa3f eee1 a83f
1.4360802 1.3309355 1.3193948
