saved models/ep_4_decoder_model.pth (torch, 11027 bytes, 2 tensors)

decoder_L1.weight f4 [618, 3]
0	0xbf9c15ce	-1.2194154
1	0xbfb83087	-1.4389809
2	0xbfc0dd97	-1.5067624
3	0xbf9d57d5	-1.2292429
4	0xbfb25070	-1.3930798
5	0xbfc6c0be	-1.552757
6	0xbf9e72f9	-1.2378837
7	0xbfb516c9	-1.4147578
8	0xbfc01c34	-1.5008607
9	0xbf9c9a77	-1.2234639
10	0xbfb62613	-1.4230369
11	0xbfbfae15	-1.4975001
12	0x3f1771be	0.5915793
13	0x3fd29459	1.6451522
14	0xc0ae4ad8	-5.446636
15	0xc0075010	-2.1142616
16	0xc0b9a83e	-5.8017874
17	0x40131b4f	2.2985418
18	0xbe48fe83	-0.19628339
19	0xbf3e9d0b	-0.7445838
20	0xbe5abc2e	-0.21360847
21	0xbf95330d	-1.1656204
22	0xbfbc7590	-1.4723377
23	0xbfc2565b	-1.5182604
24	0xbebcd9eb	-0.36885008
25	0xbf8d3b4c	-1.1033721
26	0x3e05b440	0.13057041
27	0xbd87b340	-0.06625986
28	0xbee0d8e2	-0.43915468
29	0xbf251f62	-0.6450101
30	0xbe4bf5e7	-0.19918023
31	0xbf42071b	-0.7579209
32	0xbe653aa9	-0.22385658
33	0xbe35e6b4	-0.17763788
34	0xbf3d3405	-0.739075
35	0xbe473436	-0.1945351
36	0xbfa094e9	-1.2545444
37	0xbfb4f299	-1.4136535
38	0xbfc01361	-1.5005914
39	0xbecb1250	-0.3966241
40	0xbf9a91ce	-1.2075746
41	0x3decd969	0.11564905
42	0xbfa4fca6	-1.2889602
43	0xbfb322b7	-1.3994969
44	0xbfc82fe3	-1.5639614
45	0xbd7a00ce	-0.061035924
46	0xbed8b75b	-0.4232739
47	0xbf1f112c	-0.6213558
48	0xbf9d1df7	-1.227477
49	0xbfb26ac7	-1.3938836
50	0xbfc1a06b	-1.5127081
51	0xbf9f171c	-1.2428927
52	0xbfb93376	-1.446883
53	0xbfbd990d	-1.4812332
54	0xbf9c2f60	-1.2201958
55	0xbfb87dc4	-1.4413381
56	0xbfbe445f	-1.4864615
57	0xbfa73b1e	-1.3064916
58	0xbfb4f835	-1.4138247
59	0xbfbe0543	-1.4845356
60	0xbf9dd4a1	-1.2330514
61	0xbfbaf632	-1.4606383
62	0xbfc0c0d8	-1.5058851
63	0xbf9abb43	-1.2088398
64	0xbfb16b8b	-1.3860945
65	0xbfc54bed	-1.5413796
66	0xbf9d7ae1	-1.2303125
67	0xbfbe529b	-1.4868959
68	0xbfc06d1e	-1.50333
69	0xbfa422d5	-1.282313
70	0xbfb4cbe6	-1.4124725
71	0xbfc0f101	-1.5073549
72	0xbf959027	-1.1684617
73	0xbfbdf4bc	-1.4840312
74	0xbfc1fa53	-1.5154518
75	0xbfa7af3f	-1.3100356
76	0xbfb5e338	-1.4209967
77	0xbfc74bd0	-1.5570011
78	0xbfa08610	-1.2540913
79	0xbfb5026f	-1.4141368
80	0xbfbe58f2	-1.4870894
81	0xbfa18057	-1.2617291
82	0xbfb30cf3	-1.3988327
83	0xbfc77e9a	-1.5585511
84	0xbf9f385a	-1.2439072
85	0xbfb92f28	-1.4467516
86	0xbfc49b1e	-1.5359838
87	0xbfa7df8e	-1.3115098
88	0xbfb34e15	-1.4008204
89	0xbfca1ca4	-1.578999
90	0xbf9ca20c	-1.2236953
91	0xbfb118f7	-1.3835744
92	0xbfca541b	-1.5806917
93	0xbfa0a3c3	-1.2549976
94	0xbfb33418	-1.4000273
95	0xbfbf236b	-1.4932684
96	0xbf9c1258	-1.2193098
97	0xbfbcd192	-1.4751456
98	0xbfc0e869	-1.5070926
99	0xbf93ddb8	-1.1552038
100	0xbfafe964	-1.37431
101	0xbfc1d46f	-1.5142955
102	0xbfa9bcb0	-1.3260708
103	0xbfb6841a	-1.4259064
104	0xbfbdc981	-1.4827119
105	0xbf9c8e32	-1.2230895
106	0xbfbec455	-1.4903666
107	0xbfbce447	-1.4757165
108	0xbfa4e117	-1.2881192
109	0xbfb475a6	-1.4098403
110	0xbfbbccd4	-1.4671884
111	0xbfa451c3	-1.2837452
112	0xbfb70996	-1.42998
113	0xbfbe6902	-1.4875796
114	0xbfa14f2e	-1.2602289
115	0xbfb02ca0	-1.3763618
116	0xbfc1c4d4	-1.5138192
117	0xbfa2afd5	-1.270991
118	0xbfb4946b	-1.4107794
119	0xbfbf6a0c	-1.4954238
120	0xbfa06840	-1.2531815
121	0xbfb54fa9	-1.4164935
122	0xbfc85492	-1.5650809
123	0xbf9dbecd	-1.2323853
124	0xbfb510e1	-1.4145776
125	0xbfbea5b2	-1.4894316
126	0xbfa22a27	-1.2669114
127	0xbfb0dd46	-1.3817527
128	0xbfc63b6c	-1.5486884
129	0xbf97906f	-1.1840953
130	0xbfb9590c	-1.44803
131	0xbfc7ab01	-1.5599061
132	0xbfa82e01	-1.3139039
133	0xbfb09f13	-1.3798546
134	0xbfcab372	-1.5836012
135	0xbf9fdacd	-1.2488648
136	0xbfb79ffa	-1.4345696
137	0xbfc264c0	-1.5186996
138	0xbf9d7093	-1.229998
139	0xbfafb886	-1.3728187
140	0xbfc2d88e	-1.5222337
141	0xbfa2c877	-1.2717427
142	0xbfb83f90	-1.4394398
143	0xbfc2a49e	-1.5206487
144	0xbf9caea9	-1.2240802
145	0xbfb6f37b	-1.4293054
146	0xbfc05e9a	-1.502887
147	0xbfa1cdeb	-1.2640966
148	0xbfb7e6ea	-1.4367344
149	0xbfc73ee3	-1.5566067
150	0xbfa74bfd	-1.3070065
151	0xbfb1e1e8	-1.3897066
152	0xbfbaa8ce	-1.4582765
153	0xbfa5cbe0	-1.2952843
154	0xbfbad8ec	-1.4597449
155	0xbfbf50d9	-1.4946548
156	0xbf9b633f	-1.2139663
157	0xbfb227ce	-1.3918397
158	0xbfc626b3	-1.548056
159	0xbf9c194b	-1.2195219
160	0xbfb89893	-1.4421562
161	0xbfc2e097	-1.5224789
162	0xbf9e3fe0	-1.2363243
163	0xbfab8b8b	-1.340196
164	0xbfc435af	-1.5328883
165	0xbf9ad8d9	-1.2097427
166	0xbfbef665	-1.4918944
167	0xbfbc7d99	-1.4725829
168	0xbfa05f7b	-1.2529138
169	0xbfb6dc32	-1.4285948
170	0xbfc595f4	-1.5436387
171	0xbf9b5836	-1.2136295
172	0xbfb51c62	-1.4149287
173	0xbfbafa07	-1.4607552
174	0xbf9c3f11	-1.2206746
175	0xbfb7aae2	-1.4349024
176	0xbfbf3332	-1.4937499
177	0xbfa72704	-1.3058782
178	0xbfc05aa4	-1.5027661
179	0xbfbd2a94	-1.4778619
180	0xbf9d124c	-1.2271209
181	0xbfb5013e	-1.4141004
182	0xbfc6ce42	-1.5531695
183	0xbf97b7d0	-1.185297
184	0xbfbb20a5	-1.4619337
185	0xbfc3fa91	-1.5310842
186	0xbfa1caca	-1.2640011
187	0xbfafd9ee	-1.3738382
188	0xbfc304de	-1.523586
189	0xbfa5d434	-1.2955384
190	0xbfaf50cb	-1.3696531
191	0xbfc0d98c	-1.506639
192	0xbfa43701	-1.2829286
193	0xbfb1f53b	-1.3902963
194	0xbfc442c3	-1.5332874
195	0xbfa561ea	-1.2920506
196	0xbfb383df	-1.4024619
197	0xbfc4e83b	-1.5383371
198	0xbf9d7dd1	-1.2304021
199	0xbfb9347d	-1.4469143
200	0xbfbedb7f	-1.4910735
201	0xbf9ca893	-1.2238945
202	0xbfb16500	-1.3858948
203	0xbfc270e4	-1.5190701
204	0xbf9e3e36	-1.2362735
205	0xbfbd0e22	-1.4769938
206	0xbfbffc7a	-1.4998925
207	0xbfa5bdd0	-1.2948551
208	0xbfb65575	-1.424483
209	0xbfc56f9d	-1.5424687
210	0xbfa17e99	-1.261676
211	0xbfbb4a89	-1.4632121
212	0xbfbc4308	-1.4707956
213	0xbfa7af0f	-1.3100299
214	0xbfbaa916	-1.4582851
215	0xbfbdee21	-1.4838296
216	0xbf9a7e8e	-1.2069871
217	0xbfb47b4c	-1.4100127
218	0xbfbe1b84	-1.4852147
219	0xbf994373	-1.1973709
220	0xbfb78e0a	-1.4340222
221	0xbfc72ecc	-1.5561156
222	0xbf9a76fa	-1.2067559
223	0xbfae8eb2	-1.3637297
224	0xbfc0e0d1	-1.5068609
225	0xbfa084f4	-1.2540574
226	0xbfc27df8	-1.5194693
227	0xbfbcefc9	-1.4760677
228	0xbf9cb533	-1.2242798
229	0xbfbf5970	-1.4949169
230	0xbfbad258	-1.4595442
231	0xbf9c359b	-1.2203859
232	0xbfbc4264	-1.4707761
233	0xbfc0a667	-1.5050782
234	0xbfa2ac27	-1.2708787
235	0xbfb1e93f	-1.3899306
236	0xbfbebb31	-1.4900876
237	0xbfaa1ff4	-1.3291001
238	0xbfb4f924	-1.4138532
239	0xbfc38696	-1.5275447
240	0xbf9dd331	-1.2330076
241	0xbfb65542	-1.4244769
242	0xbfc65da7	-1.549733
243	0xbf9e1f4f	-1.2353305
244	0xbfb45ffc	-1.4091792
245	0xbfc81260	-1.5630608
246	0xbf9e727b	-1.2378687
247	0xbfb79e7d	-1.4345242
248	0xbfc190fc	-1.5122371
249	0x3dca6f3c	0.098844975
250	0x3d197ade	0.03747069
251	0xc018354c	-2.378253
252	0x3d213286	0.039354824
253	0xbc99cdde	-0.018774923
254	0xbfc70b6e	-1.5550363
255	0xbce5b66f	-0.028041093

decoder_L1.bias f4 [618]
0	0xbec73e7c	-0.3891486
1	0x3d781bfd	0.060573567
2	0xbebe523f	-0.37172124
3	0xbf098338	-0.5371585
4	0xc08efef7	-4.4686236
5	0xc04d563a	-3.2083879
6	0x4002c64e	2.0433536
7	0x3e25f13a	0.16205302
8	0x3e56a324	0.2096067
9	0x403839be	2.8785243
10	0x400bb47b	2.1828907
11	0x3fe677ad	1.8005272
12	0xbf70d8c5	-0.94080764
13	0x3f630a92	0.88688004
14	0xbf104eaf	-0.5637006
15	0x40290c16	2.6413627
16	0xbe787085	-0.24261673
17	0xbf24b7b5	-0.64342815
18	0xbe99abe6	-0.3001396
19	0xbd9a0cf9	-0.075220056
20	0xbef0fe8e	-0.4706921
21	0x3c3bba8c	0.01145805
22	0xbce0ccba	-0.027441371
23	0xbe879664	-0.26481926
24	0x3b91ae88	0.0044458546
25	0x3da531be	0.08066128
26	0xbf41fe0e	-0.7577828
27	0xbf532bb5	-0.82488567
28	0xbe86b7a3	-0.2631198
29	0xbe4692bf	-0.19391917
30	0x3e112bf3	0.14176922
31	0xbf3c461d	-0.73544484
32	0x3bd15b15	0.0063890317
33	0xbf25e0c8	-0.64796114
34	0xbec47011	-0.3836675
35	0xbd491765	-0.049094576
36	0xbf50e521	-0.8159962
37	0xbf194901	-0.5987702
38	0xbf826562	-1.018719
39	0xbf554ed5	-0.83323413
40	0xbd95bc6e	-0.07311331
41	0xbf941a9b	-1.1570619
42	0xbe69cef5	-0.22832854
43	0xbbd3dcf4	-0.0064655486
44	0x3e205a8c	0.15659541
45	0xbf56976c	-0.838248
46	0x3dcb502e	0.099274024
47	0xbf1a9df1	-0.6039725
48	0x3de1a32c	0.11017451
49	0xbe9663ba	-0.2937296
50	0xbe8a1e94	-0.26976454
51	0xbe8c7066	-0.27429503
52	0xbeaf1421	-0.34195045
53	0xbcb67c9a	-0.022276212
54	0xbf0f2f09	-0.55931145
55	0xbced0aa3	-0.028935736
56	0xbece4e43	-0.40294084
57	0xbf50df57	-0.8159079
58	0x3dcbc5ba	0.09949823
59	0xbf188f53	-0.59593695
60	0x3d6142b1	0.054995243
61	0xbe779eea	-0.24181715
62	0xbde1e728	-0.11030418
63	0x3d7129f7	0.05887791
64	0xbe486eed	-0.19573565
65	0xbea8495d	-0.32868472
66	0xbd7a57be	-0.061118834
67	0xbe932b41	-0.28743938
68	0xbe400532	-0.18751982
69	0xbead7f93	-0.33886394
70	0x3d66d8a5	0.056358952
71	0xbf7b09b5	-0.98061687
72	0xbf729d4e	-0.9477128
73	0xbf13ea88	-0.5777974
74	0xbf8a7cb5	-1.0819308
75	0xbf21b406	-0.6316532
76	0xbe1cc1aa	-0.15308252
77	0xbe34852b	-0.17628925
78	0xbef7c252	-0.48390442
79	0xbdbd19a8	-0.09233409
80	0xbf211acd	-0.6293152
81	0xbf442e9d	-0.76633626
82	0xbf3c9e21	-0.73678786
83	0xbf8db9e3	-1.1072353
84	0xbfb23dd2	-1.3925116
85	0xbee3ce37	-0.44493267
86	0xbfa57872	-1.2927382
87	0xbfd5035a	-1.6641648
88	0xbf2d1dba	-0.67623484
89	0xbf8d6c73	-1.1048721
90	0xbf49e83c	-0.78869987
91	0xbff9fb24	-1.9529767
92	0xbfb2fba2	-1.3983042
93	0xc01965e5	-2.3968441
94	0xbfdce612	-1.7257712
95	0xbee398bb	-0.44452462
96	0xbf964f51	-1.1742955
97	0x3c4a201a	0.012336755
98	0xbddbdb94	-0.107352406
99	0xbf52bb2b	-0.82316846
100	0xbf725544	-0.94661355
101	0xbf20a470	-0.6275091
102	0xbe8805a0	-0.26566792
103	0x3f4a50a6	0.7902931
104	0x3d3f2da9	0.046674404
105	0x3dc50a92	0.09621157
106	0x3ec47df7	0.38377354
107	0x3ec2f39b	0.3807648
108	0x3f42a371	0.7603064
109	0xbd0eff7b	-0.034911614
110	0xbe58d214	-0.21173888
111	0xbdb3fdfb	-0.08788677
112	0x3f5c6f0c	0.86106944
113	0xbe0d7e9e	-0.13817832
114	0x3df987a0	0.121840715
115	0x3da8034f	0.08203756
116	0x3edfc32d	0.43703595
117	0x3eb03884	0.34418118
118	0x3cdea6c8	0.027179137
119	0xbd20a197	-0.039216604
120	0xbf219cd0	-0.631299
121	0xbe95f75c	-0.29290283
122	0xbe444aae	-0.19169113
123	0x3f778be8	0.96697855
124	0x3f3a884a	0.7286421
125	0x3f60b746	0.87779653
126	0x3f5b9f2b	0.85789746
127	0x3e9d7acf	0.30757758
128	0x3f5581ee	0.8340138
129	0x3e1db78a	0.15402046
130	0x3f63174f	0.8870744
131	0x3e98bd04	0.29831707
132	0x3d97397f	0.073840134
133	0x3e6964eb	0.22792403
134	0xbe052ad3	-0.13004617
135	0x3e258f09	0.16167845
136	0x3f412b46	0.75456655
137	0x3bfc0611	0.007691153
138	0x3e422da2	0.1896272
139	0x3f47dc27	0.780703
140	0x3f2e5fc4	0.68114877
141	0xbdaa0659	-0.08301992
142	0x3f3e2f60	0.7429104
143	0x3e644e5c	0.22295517
144	0x3f174cae	0.5910138
145	0x3e35cd4d	0.17754097
146	0x3da1b932	0.07896651
147	0x3f31f4ae	0.69513977
148	0x3f0937fa	0.5360104
149	0x3f04057e	0.5157088
150	0x3ef5be28	0.4799664
151	0xbc13c853	-0.009019929
152	0xbe917fa7	-0.28417704
153	0x3db594cf	0.088662736
154	0xbeb79485	-0.358555
155	0xbf0a4fc1	-0.54027945
156	0xbf1d7501	-0.6150666
157	0x3e6ac34e	0.22926065
158	0x3e9505b8	0.29105926
159	0xbf1f92da	-0.6233345
160	0x3e81e289	0.25368145
161	0x3e2346e0	0.15945005
162	0x3eb07e91	0.34471563
163	0xbd60e5aa	-0.054906525
164	0x3d6ea3aa	0.05826155
165	0x3e91ec54	0.28500617
166	0x3c8c664f	0.017138628
167	0xbd9b9242	-0.07596256
168	0xbdfd8e52	-0.12380661
169	0xbe08f1ee	-0.13373539
170	0x3f4a451b	0.79011697
171	0x3cf83240	0.030297399
172	0x3e8b77ef	0.2723994
173	0xbd893805	-0.06700138
174	0xbf27e999	-0.65590817
175	0xbd24e71f	-0.040259477
176	0x3e2e352b	0.1701247
177	0xbeaf99a7	-0.34296915
178	0xbf3c3d1e	-0.7353076
179	0xbd96b1d5	-0.073581375
180	0xbe94aec1	-0.29039577
181	0xbf4a3399	-0.7898498
182	0xbe710f93	-0.23541097
183	0xbf323398	-0.69609976
184	0xbf38f746	-0.7225231
185	0x3e23b5c4	0.15987307
186	0xbf6ffdbe	-0.93746555
187	0xbd832521	-0.06403566
188	0xbf495bc8	-0.7865567
189	0xbe6e828f	-0.23291992
190	0xbf4f9348	-0.8108411
191	0xbf707b72	-0.9393836
192	0xbf48f9cc	-0.7850616
193	0xbe5a19d4	-0.21298915
194	0xbf1c601c	-0.6108415
195	0xbf8123b5	-1.0089022
196	0xbdb06e32	-0.08614768
197	0xbf685fff	-0.9077148
198	0xbf7e6a2d	-0.9938076
199	0xbdb7d110	-0.089754224
200	0xbcaf8fd7	-0.021430893
201	0xbdd04e69	-0.101712056
202	0xbf5bf3ae	-0.859187
203	0xbf3cf0f6	-0.7380518
204	0xbda73346	-0.081640765
205	0xbf88e763	-1.0695614
206	0x3e15771e	0.14596221
207	0xbe814d21	-0.25254157
208	0xbe46990b	-0.19394319
209	0xbf135358	-0.5754905
210	0xbf31c216	-0.69436777
211	0xbe6809f1	-0.22660042
212	0xbccf445f	-0.025301157
213	0xbe81d34c	-0.2535652
214	0xbe7719ff	-0.2413101
215	0xbf752d6c	-0.95772433
216	0xbdf81805	-0.12113956
217	0xbe7f63cf	-0.24940418
218	0x3e5604bf	0.20900248
219	0xbe5f22ed	-0.21790667
220	0x3e09a25a	0.13440838
221	0xbf36589f	-0.71228975
222	0xbf4133cc	-0.7546966
223	0x3d320a58	0.043466896
224	0xbf576f4c	-0.841542
225	0x3e01b39e	0.12666175
226	0xbf8398b2	-1.0280974
227	0xbf3bd225	-0.7336753
228	0x3da5ebe3	0.081016324
229	0xbf3d14b7	-0.73859733
230	0x3e294d2b	0.16533343
231	0xbf661c0c	-0.89886546
232	0xbf2f62ce	-0.6851014
233	0xbeb667f7	-0.35626194
234	0xbf103724	-0.5633414
235	0xbf1100e9	-0.56642014
236	0xbf5cc03f	-0.86230844
237	0xbf81cf9a	-1.014148
238	0xbf9bf155	-1.2183024
239	0x3fcae39f	1.5850714
240	0x3c6e65de	0.014550654
241	0xbf8e1643	-1.1100544
242	0xbea30b43	-0.3184453
243	0xbf2b4362	-0.66899693
244	0xbf4b1ead	-0.7934368
245	0xbf218f76	-0.6310953
246	0xbeb78592	-0.35844094
247	0xbe8ce842	-0.2752095
248	0xbf75cc0d	-0.9601448
249	0x3c646ebe	0.013942419
250	0xbe59ac8c	-0.21257228
251	0x3e29985c	0.16562027
252	0x3d9b7816	0.07591264
253	0xbe470850	-0.19436765
254	0xbd7824fd	-0.06058215
255	0xbddb7ad5	-0.10716788
