saved models/ep_4_encoder_model.pth (torch, 8595 bytes, 2 tensors)

encoder_L1.weight f4 [3, 618]
000000 e4 fa e7 3b 76 7d 7e bb 3e 8e bf bd da d7 b2 3d
       0.007079469 -0.0038832105 -0.093533024 0.08732577
000010 cf 51 01 40 bc ff 18 3f 46 47 57 3f 78 81 05 3e
       2.0206182 0.5976522 0.8409313 0.1303767
000020 76 e0 54 3f 77 45 a0 3f b7 71 58 3f 5c 8e 4e 3f
       0.83155 1.2521199 0.84548515 0.80685973
000030 59 f0 d1 bc e0 2c 58 3f 42 fc b1 3d b9 38 a4 3f
       -0.025627302 0.84443474 0.086906925 1.282981
000040 d1 bd e1 bc 5a b7 b1 3d 4c 39 07 3e 70 d7 2f bd
       -0.027556332 0.0867755 0.13205451 -0.042930067
000050 83 3d 8a bc 30 80 ee 3d 6c 71 98 3d ef a4 7a 3b
       -0.016875034 0.116455436 0.074435085 0.003824528
000060 14 f5 1b 3d 3b 8d 98 3c 98 f7 14 3e e9 ff ef 3c
       0.03807552 0.018622031 0.14547575 0.029296832
000070 80 66 3e bc 81 3b bd bb 24 4f 46 3d 35 48 cb 3d
       -0.011621118 -0.0057749157 0.048415318 0.09925882
000080 24 8e ec bb 5e 4b d8 bd a8 54 34 bd 7f d5 2f bc
       -0.007219093 -0.1056125 -0.044026047 -0.010732054
000090 7c 08 4b bc d7 63 3e 3c ee d0 13 3d 48 bf 7b bc
       -0.01239216 0.011620483 0.036087923 -0.015365429
0000a0 3d 02 5c 3d 25 f2 e4 3d 6d 1f b3 3c 5d 91 1a bd
       0.053713072 0.11178998 0.02186557 -0.037736285
0000b0 a3 f2 a3 3d 4b 62 94 3d 09 db b3 38 87 0a b4 bc
       0.08005264 0.072453104 8.5761836e-05 -0.021977676
0000c0 c9 c1 b5 bd d2 53 aa 3d 56 93 3b 3d 4e 01 2b 3d
       -0.08874852 0.08316769 0.045794807 0.04174929
0000d0 6c 32 82 bd dc 0b 87 bb c8 fc a0 bd 6a 0f b0 3d
       -0.063572735 -0.004121287 -0.07860714 0.0859669
0000e0 13 ad 83 bc 50 a7 bc bd 60 76 b8 bd 4a 7b e0 3d
       -0.01607374 -0.092116 -0.09006953 0.109610155
0000f0 24 dd 17 3e ab 42 90 3d c8 8b aa bc 86 4d 40 bd
       0.14830452 0.07043966 -0.020818606 -0.046948932
000100 8a c2 cb 3d e1 6a 2b bb db fa 81 bd 7e 11 96 bc
       0.09949215 -0.0026156234 -0.06346675 -0.018318888
000110 36 a1 91 3d f1 1d 4e bc 0a a1 96 3d 86 32 af 3d
       0.07110827 -0.012580381 0.073549345 0.085545585
000120 00 ee e1 3d be 7b 72 3c b8 f2 cb 3c c7 7b d0 3d
       0.11031723 0.01480001 0.02489601 0.10179859
000130 87 0e bf 3d dd ab a3 3d 49 35 d4 3d 7d 7c 09 3e
       0.09328943 0.07991765 0.10361726 0.13426395
000140 4c 75 15 bd 09 db 2e 38 6d 92 77 3d a0 6a 01 40
       -0.036488816 4.1688825e-05 0.060442377 2.0221329
000150 9e 8f eb 3f c0 00 9f 3f 81 0d ba 3f 36 79 dd 3f
       1.8403203 1.2422104 1.4535371 1.7302616
000160 83 df b3 3f 10 ed d5 3f f6 da 9f 3f 77 91 f9 3f
       1.4052585 1.6712971 1.2488697 1.9497517
000170 50 a4 21 40 1e 7d af 3e f3 5b c7 3e c8 41 c2 3e
       2.5256538 0.34275144 0.3893734 0.37940812
000180 64 18 c3 3e 25 9d bb 3e 52 cc c2 3e 14 ca bc 3e
       0.38104546 0.3664333 0.3804651 0.36872923
000190 e8 fb bd 3e 8f 2e bb 3e 69 49 c4 3e f7 66 02 3f
       0.37106252 0.3655896 0.38337258 0.5093836
0001a0 d4 2e 01 3f cb 2b fc 3e f9 4d 00 3f 07 8a ff 3e
       0.5046208 0.4925216 0.50118977 0.49909994
0001b0 75 17 01 3f 3b 0b 02 3f 3d b7 02 3f 2a 07 02 3f
       0.5042642 0.50798386 0.5106085 0.5079218
0001c0 9b ea 02 3f ff 1d ea 3e 78 24 e2 3e 8b b1 e0 3e
       0.5113923 0.4572601 0.44168448 0.43885455
0001d0 64 2d db 3e 67 a6 e2 3e e5 ca de 3e d3 90 e8 3e
       0.42808068 0.4426758 0.4351417 0.45422992
0001e0 ec 78 df 3e 64 fc e2 3e e0 c7 e0 3e 5d 00 20 3f
       0.43646944 0.44333184 0.43902493 0.62500554
0001f0 89 c2 21 3f b9 f6 1e 3f bd bf 21 3f 21 fa 21 3f
       0.6318746 0.6209522 0.63183194 0.6327229
000200 d4 aa 21 3f 52 20 1d 3f 3b 0d 25 3f 71 01 25 3f
       0.6315129 0.6137744 0.64473313 0.64455324
000210 34 81 21 3f 12 e3 01 3f 51 7e 03 3f 2d f6 fc 3e
       0.63087773 0.50737107 0.5136462 0.49406567
000220 58 fb 00 3f 32 18 02 3f 3f 8e 03 3f 4f a3 01 3f
       0.5038352 0.5081817 0.51388925 0.50639814
000230 a2 cd fe 3e d7 04 04 3f a7 b6 fd 3e 25 73 0a 3f
       0.4976626 0.51569885 0.49553415 0.54081947
000240 a0 f7 0a 3f 2d 4e 0b 3f da ff 07 3f ea 45 0a 3f
       0.54284096 0.5441616 0.53124774 0.5401293
000250 39 ab 0b 3f f4 52 0b 3f 4a 98 07 3f 00 39 0d 3f
       0.5455814 0.5442345 0.5296675 0.551651
000260 91 10 0c 3f 23 d5 db 3e 28 70 de 3e cc 5a df 3e
       0.5471278 0.42936048 0.43444943 0.4362396
000270 62 ee e2 3e 7c 00 e3 3e 69 52 e4 3e 46 a8 e7 3e
       0.44322497 0.44336307 0.44594124 0.4524557
000280 1d 28 e0 3e 06 e3 e0 3e 00 3a e0 3e e2 55 19 3f
       0.43780604 0.43923205 0.4379425 0.5989667
000290 26 23 21 3f 3c e1 16 3f 9b a5 18 3f 41 aa 19 3f
       0.6294426 0.5893743 0.59627694 0.6002541
0002a0 9c a9 1e 3f 7c 49 1a 3f fe c3 1a 3f b4 5e 16 3f
       0.61977553 0.6026838 0.6045531 0.58738256
0002b0 19 bf 1c 3f 66 f4 b8 bc 2c 83 9c bc ea 9a aa 3d
       0.6122909 -0.022577476 -0.019105516 0.08330329
0002c0 8c 6b a5 3d 1b ea 3c 3d 9a d0 cf 3d 51 73 e0 3d
       0.080771536 0.046121698 0.101472095 0.10959495
0002d0 df 01 75 bc 01 f0 00 3d 67 22 0e 3e a6 94 a1 3d
       -0.014954059 0.031478886 0.13880311 0.078896806
0002e0 df bd 0e 3e 07 fc 9c 3c 91 25 88 3d 50 6b cc 3d
       0.13939618 0.019163145 0.0664779 0.09981406
0002f0 67 bb e8 3d 06 35 8c 3d 78 2a 35 3d d5 e8 f9 3d
       0.11363869 0.06846051 0.044229954 0.12202612
000300 84 97 d6 bb dc 0f 91 3d b3 b5 f9 bc 92 ef 8c 3d
       -0.006548824 0.07083103 -0.030482149 0.06881632
000310 df 25 ca 3b 59 a8 47 3d 99 63 e7 3d 7c d2 a7 3c
       0.0061690654 0.048744533 0.112982936 0.020486109
000320 a6 a8 a3 3d d2 97 0a bd a5 a7 82 3d a8 9e 2e bd
       0.079911515 -0.033836193 0.06379632 -0.042631775
000330 b5 70 9b 3d dc 8f 78 3d fe 38 af 3d d2 b0 86 3b
       0.075898565 0.06068407 0.08555792 0.004110434
000340 14 b3 5c bd 7e 80 dc bc 9d 49 9a bd b1 37 1f bc
       -0.05388172 -0.026916739 -0.07533572 -0.009717868
000350 15 3e b4 3c 8c aa ae bd d6 99 16 3e f6 b1 15 3e
       0.02200226 -0.08528623 0.14707121 0.14618668
000360 a9 c8 84 bd 8a 6f d7 3d 4b 71 76 bc a2 a3 32 3d
       -0.064835854 0.10519321 -0.01504166 0.043613084
000370 45 96 a5 3d b3 45 1d bd 66 b4 ab bd bf 90 af 3d
       0.08085302 -0.03839655 -0.08384018 0.0857253
000380 25 81 0f 3d c0 e8 9a bd d6 ab a7 bc 1d fa a2 3d
       0.03503527 -0.07563925 -0.02046768 0.079578616
000390 b0 8a ba 3d dc 7c ad 3b 8b e5 e7 3d db 53 7b 3d
       0.09108484 0.0052944254 0.11323079 0.061359268
0003a0 bc 89 eb bc 60 76 4c 3d 65 c8 ab 3b 71 a9 d8 3d
       -0.0287522 0.04991758 0.0052423947 0.105791934
0003b0 2d 4f 71 40 1d 68 d9 3d 2f 48 d2 bf 7a e4 90 bf
       3.7704575 0.10615561 -1.6428279 -1.1319726
0003c0 25 e0 c6 3d ff 07 ae 3d f3 e8 92 3d 04 d7 10 3d
       0.09710721 0.08497619 0.07173338 0.035361305
0003d0 41 b7 af b8 97 59 14 3e 82 44 00 3e c9 7a 65 bb
       -8.378784e-05 0.14487301 0.12526134 -0.0035015813
0003e0 e0 8a ad 3d e6 15 b1 3d ef b5 a3 bb a2 15 63 bd
       0.08473754 0.08646755 -0.0049960534 -0.055440553
0003f0 7c c6 1a bd 20 9c fc 3d d4 d2 89 bd 89 05 db 3d
       -0.037786946 0.12334466 -0.067296654 0.10694415

encoder_L1.bias f4 [3]
000000 e2 be ec 3f 10 b3 ea 3f 16 89 c3 3f
       1.8495753 1.8335896 1.527621
