saved models/ep_5_encoder_model.pth (torch, 8595 bytes, 2 tensors)

encoder_L1.weight f4 [3, 618]
000000 5d e3 c0 bc 98 db 10 bd 14 bb fa bd b3 ed 64 3d
       -0.023545915 -0.03536567 -0.122427136 0.05589075
000010 5f 13 13 40 5a 73 36 3f c6 1b 76 3f 9b 97 ca 3d
       2.2980573 0.7126976 0.9613613 0.09892198
000020 1b eb 70 3f 93 b4 c1 3f 3e 3b 77 3f a2 75 6d 3f
       0.9410874 1.5133232 0.9657477 0.9275762
000030 c6 3c 69 bd 95 e4 70 3f ff 2a 6f 3d 89 8c c6 3f
       -0.056942724 0.9409879 0.058390614 1.5511638
000040 aa 07 71 bd 75 49 62 3d 2e a1 ce 3d 6b 96 97 bd
       -0.0588452 0.055245835 0.10089336 -0.07401737
000050 a1 51 46 bd c2 5f ae 3d 09 1a 30 3d c8 65 e3 bc
       -0.04841769 0.08514358 0.04299358 -0.027758494
000060 74 06 d8 3b 40 91 53 bc 14 00 2d 3e 7d 26 13 bb
       0.006592566 -0.012913048 0.16894561 -0.002245336
000070 d8 d0 30 bd ac f3 18 bd 0c a0 89 3c 85 9f 8a 3d
       -0.04316792 -0.03734176 0.01679995 0.06768707
000080 05 fb 1e bd 08 6e 0c be 00 65 9a bd 3b 01 2c bd
       -0.03881361 -0.13713849 -0.075387955 -0.04199336
000090 0c 05 34 bd 72 59 a3 bc 6c e5 34 3c a8 05 35 bd
       -0.043950126 -0.019940112 0.011041027 -0.044194847
0000a0 32 29 b5 3c 93 34 a4 3d be 70 1d bc 4b ea 8d bd
       0.02211437 0.0801784 -0.009609399 -0.069294535
0000b0 7c ac 60 3d c7 99 27 3d 37 06 00 bd 44 dd 5a bd
       0.054851994 0.040918138 -0.031255927 -0.05343367
0000c0 a1 b7 f1 bd 28 87 53 3d ac e6 71 3c b5 ab 40 3c
       -0.118026026 0.051642567 0.014764469 0.011759688
0000d0 6a a3 c2 bd 77 42 11 bd 07 96 dd bd 71 a3 62 3d
       -0.09503825 -0.035463776 -0.10819631 0.05533165
0000e0 53 b0 42 bd 40 3c fd bd de d9 f8 bd 63 c3 9f 3d
       -0.047531437 -0.123650074 -0.1215093 0.07800939
0000f0 e3 ff ee 3d 10 a1 1f 3d 3c b1 51 bd 1b 9d a0 bd
       0.116699 0.03897196 -0.051194414 -0.078424655
000100 6b 1f 8b 3d ad 55 0c bd 44 be c2 bd ac 8f 4b bd
       0.06793102 -0.034261394 -0.095089465 -0.049697563
000110 e2 cd 23 3d 5c 8b 30 bd df f2 2c 3d 19 f3 5c 3d
       0.039991267 -0.043101653 0.042223807 0.053942773
000120 75 61 a1 3d 91 8f 60 bc e3 dd cd bb 42 d6 8f 3d
       0.078799166 -0.013706104 -0.0062825545 0.07023288
000130 92 b2 7e 3d e6 4e 46 3d 69 87 93 3d 58 44 d2 3d
       0.062182017 0.048415087 0.07203562 0.10266942
000140 5b 65 8a bd 10 44 01 bd d4 96 ed 3c e2 63 0b 40
       -0.06757613 -0.03155905 0.029002585 2.1779714
000150 a7 03 00 40 dd c6 a4 3f bb e1 ad 3f af 29 e5 3f
       2.000223 1.2873188 1.3584512 1.7903346
000160 36 91 a8 3f 85 3e dc 3f c5 bd a7 3f ee f0 08 40
       1.3169315 1.720658 1.3104788 2.1397052
000170 4b f6 2c 40 74 6e c0 3e 23 54 e0 3e e3 f0 de 3e
       2.7025325 0.3758427 0.4381419 0.43543157
000180 88 d6 e0 3e f6 15 e2 3e b2 6c db 3e 9c 68 e1 3e
       0.43913674 0.4415738 0.42856365 0.44025123
000190 96 c5 e2 3e e3 34 df 3e 10 42 e3 3e f2 fc 0a 3f
       0.4429137 0.43595037 0.4438634 0.54292214
0001a0 86 30 0a 3f 59 d1 09 3f 67 d1 0a 3f a1 79 09 3f
       0.5398029 0.53835064 0.5422577 0.53701216
0001b0 c5 6e 0d 3f f4 6c 0b 3f 58 db 09 3f 1b be 0b 3f
       0.55247146 0.54463124 0.53850317 0.5458695
0001c0 3d f6 0a 3f 0f 37 f8 3e a0 d8 f1 3e 28 16 f1 3e
       0.5428198 0.48479506 0.47235584 0.47087216
0001d0 4d 6e f6 3e 82 42 f9 3e 2d 51 f5 3e 53 94 ef 3e
       0.48131028 0.48683554 0.47913495 0.4679285
0001e0 90 4e f0 3e 15 9e f7 3e 46 61 f7 3e e4 e3 31 3f
       0.46934938 0.48362795 0.483164 0.6948836
0001f0 4a 37 35 3f af 13 36 3f 09 d8 35 3f 1a e9 35 3f
       0.7078749 0.71123785 0.7103277 0.7105881
000200 5a e1 34 3f 5d 57 34 3f 1a c8 34 3f 37 ff 35 3f
       0.7065636 0.70445806 0.7061783 0.7109255
000210 97 d1 3a 3f 9c 8c 0b 3f 52 06 0c 3f 26 19 0a 3f
       0.7297606 0.5451143 0.54697144 0.53944623
000220 5d 40 09 3f 40 47 0c 3f 8f 6d 0a 3f 29 bb 09 3f
       0.53613836 0.5479622 0.54073423 0.5380121
000230 05 3e 0c 3f 88 ef 0c 3f 85 4d 09 3f 13 f7 13 3f
       0.54782134 0.55052996 0.5363391 0.5779888
000240 74 35 11 3f 4d f0 11 3f f2 90 13 3f e8 e7 12 3f
       0.5672219 0.57007295 0.57643044 0.5738511
000250 68 e3 12 3f 47 70 11 3f 37 69 12 3f a4 f9 10 3f
       0.57378244 0.56811947 0.57191795 0.5663092
000260 69 51 13 3f f8 c1 f4 3e ba 0a f8 3e 41 1f f0 3e
       0.575461 0.47804236 0.48445684 0.46898845
000270 db 73 ef 3e d8 06 ee 3e 1e 45 f0 3e 2c dd eb 3e
       0.46768078 0.46489596 0.46927732 0.46067178
000280 e0 25 f4 3e 0f ae f6 3e 9d 10 ef 3e 7c f3 2f 3f
       0.47685146 0.4817967 0.46692362 0.687309
000290 ce a8 31 3f ba 0e 30 3f 86 8e 30 3f ac 49 31 3f
       0.693982 0.6877247 0.68967474 0.6925304
0002a0 89 40 2f 3f 8a 4e 2e 3f 6e aa 30 3f 65 78 30 3f
       0.6845785 0.6808859 0.69010055 0.6893371
0002b0 30 95 2c 3f 33 93 5d bd ce 78 4f bd 01 20 5f 3d
       0.6741514 -0.05409546 -0.050652318 0.05447388
0002c0 e5 93 49 3d 4a 48 70 3c 31 ff 8f 3d b0 e0 9f 3d
       0.04921331 0.014665673 0.07031096 0.078065276
0002d0 5a 2c 3e bd b4 92 ac b8 4e 8c dd 3d af bb 41 3d
       -0.046429016 -8.228925e-05 0.108177766 0.04729813
0002e0 39 d6 dc 3d e7 8b 47 bc c0 d5 0f 3d 65 e9 8d 3d
       0.10783047 -0.012179351 0.035115957 0.06929282
0002f0 51 8b a8 3d 37 61 17 3d 65 97 53 3c 98 58 b9 3d
       0.082296975 0.036957946 0.012914513 0.09050101
000300 56 4e 18 bd 7b d3 20 3d 6d 72 63 bd f0 8f 19 3d
       -0.037184082 0.039264183 -0.055529047 0.037490785
000310 ee 30 d0 bc 8e b5 a5 3c 2e 4f a7 3d 4e 7e 33 bc
       -0.025413956 0.020228174 0.08169399 -0.010955406
000320 7d 26 46 3d 1b e5 85 bd 81 75 04 3d 72 c1 97 bd
       0.04837655 -0.06537839 0.032338623 -0.07409944
000330 e6 ae 3d 3d 0b 7d ee 3c 30 39 77 3d b2 37 e1 bc
       0.046309374 0.02911236 0.060357273 -0.027492378
000340 5b e6 ad bd 03 9c 6f bd 24 19 db bd f6 af 28 bd
       -0.084912024 -0.058498394 -0.106981546 -0.041183434
000350 e8 54 1b bc 18 85 ee bd cd b9 ec 3d 72 ba 2d 3e
       -0.009480692 -0.11646479 0.11558876 0.16965654
000360 7f f5 bf bd fb af 96 3d 24 5f 32 bd be 82 45 3c
       -0.093729965 0.07357784 -0.043547764 0.012055097
000370 ea 55 4a 3d 43 5d 8f bd 56 49 ec bd a3 15 5f 3d
       0.04939834 -0.0700021 -0.11537425 0.054463994
000380 82 ab bc 3b c3 49 db bd d1 00 55 bd bd 89 46 3d
       0.00575775 -0.10707428 -0.05200273 0.0484712
000390 d4 a0 75 3d 9b ae d5 bc df af a9 3d f0 41 f4 3c
       0.05996783 -0.026084235 0.08285498 0.029816598
0003a0 be 05 76 bd 69 13 97 3c 44 99 d7 bc 42 3e 9b 3d
       -0.06006407 0.018441873 -0.0263182 0.07580234
0003b0 92 3c 9f 40 39 fb 98 3d 87 e6 ee bf ff 82 b0 bf
       4.976144 0.07469792 -1.8664101 -1.3789977
0003c0 ae 4a 86 3d e6 5a 5c 3d 03 e6 24 3d bc 5a 7b 3b
       0.06557213 0.053797625 0.04025842 0.0038353642
0003d0 32 8a 01 bd 63 67 f5 3d fe 4c 18 3e 6e 80 0e bd
       -0.031625934 0.1198261 0.1487312 -0.03479045
0003e0 e2 e2 59 3d 95 37 61 3d 06 5b 15 bd c2 1f b2 bd
       0.053194888 0.054984648 -0.03646376 -0.086974636
0003f0 bc c6 8d bd 86 ed bb 3d a5 5f c9 bd 1d 70 9a 3d
       -0.06922671 0.091761634 -0.09832696 0.07540915

encoder_L1.bias f4 [3]
000000 f1 40 0a 40 81 cf 17 40 43 18 c4 3f
       2.1602137 2.37204 1.5319904
