saved models/ep_5_decoder_model.pth (torch, 11027 bytes, 2 tensors)

decoder_L1.weight f4 [618, 3]
-1.2387072 -1.483025 -1.5758154 -1.2532626 -1.4487299 -1.6282552 -1.2504292 -1.4382658
-1.5526441 -1.2389011 -1.4654058 -1.5632557 0.5073873 1.3473598 -7.3619747 -2.1354933
-7.335929 2.6528537 -0.14204095 -0.7578608 -0.2817481 -1.1875352 -1.5308748 -1.5941532
-0.29413158 -1.0886139 0.09813227 -0.045422856 -0.45591405 -0.7701512 -0.13554622 -0.7618442
-0.28482577 -0.1418248 -0.7392491 -0.26589018 -1.2688432 -1.4549748 -1.560189 -0.33109638
-1.1846262 0.095038906 -1.2907002 -1.4124355 -1.5924661 -0.033177376 -0.4525036 -0.7583654
-1.2412609 -1.4348013 -1.5771358 -1.25533 -1.4893605 -1.5484899 -1.2318857 -1.480955
-1.5426513 -1.3158202 -1.4473046 -1.5363057 -1.2553153 -1.5173484 -1.5914118 -1.2386036
-1.4467394 -1.6188128 -1.2547092 -1.5358601 -1.5803932 -1.3132099 -1.497465 -1.6146264
-1.1868727 -1.5359482 -1.5897247 -1.3272711 -1.470814 -1.6209518 -1.2682884 -1.4301572
-1.525668 -1.280664 -1.4508141 -1.6273713 -1.2641383 -1.5050623 -1.6142496 -1.3354099
-1.4691683 -1.6595522 -1.2704655 -1.5023134 -1.7120646 -1.3023951 -1.5131477 -1.6397566
-1.262861 -1.5810665 -1.6379457 -1.1601204 -1.3918458 -1.620766 -1.3435565 -1.4685236
-1.5614691 -1.2302419 -1.5188947 -1.5308043 -1.3205634 -1.4918294 -1.5815316 -1.31258
-1.5045096 -1.5897583 -1.3088582 -1.4846767 -1.6422865 -1.2787277 -1.4405826 -1.5451269
-1.2890406 -1.5086143 -1.6806732 -1.2547381 -1.4947124 -1.5858622 -1.286108 -1.4297686
-1.6086447 -1.207523 -1.5166165 -1.6457192 -1.3300006 -1.418554 -1.6376411 -1.259662
-1.4775318 -1.581458 -1.2564921 -1.431827 -1.5990884 -1.2820632 -1.4774787 -1.5852011
-1.2566931 -1.4893343 -1.5952262 -1.2786977 -1.4856492 -1.6202217 -1.3336171 -1.4447236
-1.535422 -1.307536 -1.4990538 -1.5581576 -1.2318006 -1.4339422 -1.6106899 -1.2185019
-1.4977562 -1.5813371 -1.2680413 -1.3953295 -1.6032896 -1.2164109 -1.5181518 -1.5207042
-1.2707267 -1.4692855 -1.6073153 -1.2613145 -1.5139973 -1.5986856 -1.2476193 -1.4920237
-1.5843058 -1.3585175 -1.6261853 -1.6447495 -1.2697866 -1.5166476 -1.6813375 -1.2039533
-1.5119619 -1.6044732 -1.287051 -1.4256417 -1.5930222 -1.3274081 -1.4429749 -1.6055803
-1.3186231 -1.4792784 -1.6486872 -1.3024741 -1.4285104 -1.5896395 -1.2853082 -1.5844944
-1.6297079 -1.2440795 -1.4304603 -1.590205 -1.2452251 -1.5093982 -1.5530641 -1.2974731
-1.442862 -1.5803504 -1.2771804 -1.5025506 -1.5421989 -1.3600694 -1.5770601 -1.6431634
-1.2279382 -1.462768 -1.5642534 -1.2019414 -1.4509033 -1.5870582 -1.2162479 -1.3952315
-1.5486257 -1.2692207 -1.5707523 -1.5505837 -1.2373089 -1.5337021 -1.5279816 -1.2325885
-1.5176568 -1.582188 -1.3106385 -1.4738988 -1.6132497 -1.3710039 -1.5223011 -1.6552155
-1.2339838 -1.442229 -1.5775359 -1.2912859 -1.5388228 -1.7157842 -1.2542601 -1.4747456
-1.5793618 0.074423335 -0.11540634 -2.5735147 0.03541888 -0.097907744 -1.7146837 -0.021361073
00000000: f58d 9ebf c3d3 bdbf 52b4 c9bf e96a a0bf
00000010: fb6f b9bf ab6a d0bf 100e a0bf 1819 b8bf
00000020: 0bbd c6bf 5094 9ebf 6b92 bbbf c318 c8bf
00000030: 22e4 013f 4976 ac3f 4c95 ebc0 ecab 08c0
00000040: eebf eac0 5bc8 2940 2f73 11be 2a03 42bf
00000050: 4941 90be 2701 98bf b5f3 c3bf 360d ccbf
00000060: 6a98 96be b357 8bbf 92f9 c83d 510d 3abd
00000070: 916d e9be a128 45bf a1cc 0abe 3908 43bf
00000080: afd4 91be 853a 11be 6e3f 3dbf c222 88be
00000090: 7469 a2bf 9d3c babf 46b4 c7bf 7785 a9be
000000a0: d5a1 97bf c2a3 c23d aa35 a5bf b0ca b4bf
000000b0: eed5 cbbf 00e5 07bd 8dae e7be 3c24 42bf
000000c0: a3e1 9ebf 92a7 b7bf 96df c9bf a7ae a0bf
000000d0: 5da3 bebf eb34 c6bf 6eae 9dbf ef8f bdbf
000000e0: 9975 c5bf cc6c a8bf 4741 b9bf aaa5 c4bf
000000f0: 2cae a0bf 7938 c2bf 62b3 cbbf 908a 9ebf
00000100: c22e b9bf 4235 cfbf 509a a0bf 1097 c4bf
00000110: 534a cabf 4317 a8bf efac bfbf 14ac cebf
00000120: 72eb 97bf f399 c4bf 197c cbbf 05e4 a9bf
00000130: a243 bcbf 597b cfbf 4657 a2bf 640f b7bf
00000140: 1749 c3bf ccec a3bf 47b4 b9bf b44d d0bf
00000150: 49cf a1bf e2a5 c0bf bb9f cebf b6ee aabf
00000160: b50d bcbf 356c d4bf 9d9e a2bf ce4b c0bf
00000170: ef24 dbbf e2b4 a6bf d3ae c1bf 8be3 d1bf
00000180: 6ea5 a1bf 6360 cabf 34a8 d1bf d37e 94bf
00000190: 0128 b2bf 4375 cfbf a9f9 abbf 95f8 bbbf
000001a0: 38de c7bf 9178 9dbf 246b c2bf 65f1 c3bf
000001b0: 3908 a9bf 44f4 bebf a16f cabf 9f02 a8bf
000001c0: c593 c0bf 337d cbbf aa88 a7bf e309 bebf
000001d0: 7236 d2bf 59ad a3bf 0365 b8bf b8c6 c5bf
000001e0: 48ff a4bf 461a c1bf 4d20 d7bf 429b a0bf
000001f0: bc52 bfbf 88fd cabf 309f a4bf a802 b7bf
00000200: 12e8 cdbf 1d90 9abf 7d20 c2bf eda6 d2bf
00000210: 763d aabf 2d93 b5bf 399e d1bf 9b3c a1bf
00000220: c31f bdbf 376d cabf bcd4 a0bf 1b46 b7bf
00000230: eeae ccbf a61a a4bf 061e bdbf dfe7 cabf
00000240: 52db a0bf 82a2 bebf 5f30 ccbf 5eac a3bf
00000250: c129 bebf 6d63 cfbf f7b3 aabf b4ec b8bf
00000260: b588 c4bf 575d a7bf ffe0 bfbf b571 c7bf
00000270: a4ab 9dbf 6b8b b7bf 162b cebf dff7 9bbf
00000280: 7ab6 bfbf 4169 cabf 2d4f a2bf 289a b2bf
00000290: 9838 cdbf 5ab3 9bbf cc52 c2bf 6fa6 c2bf
000002a0: 2ca7 a2bf 8c11 bcbf 82bc cdbf c172 a1bf
000002b0: aaca c1bf bba1 ccbf fdb1 9fbf a2fa bebf
000002c0: 88ca cabf e7e3 adbf d726 d0bf 2787 d2bf
000002d0: 5e88 a2bf 8221 c2bf 1136 d7bf 241b 9abf
000002e0: f887 c1bf 615f cdbf 16be a4bf 6d7b b6bf
000002f0: 27e8 cbbf 82e8 a9bf 67b3 b8bf a883 cdbf
00000300: a4c8 a8bf ff58 bdbf 2f08 d3bf 79b7 a6bf
00000310: 6ed9 b6bf 4f79 cbbf fb84 a4bf b6d0 cabf
00000320: 459a d0bf ff3d 9fbf 5319 b7bf d68b cbbf
00000330: 8963 9fbf f633 c1bf ceca c6bf 9913 a6bf
00000340: b4af b8bf ec48 cabf a67a a3bf 9453 c0bf
00000350: c666 c5bf c116 aebf 1bdd c9bf 2e53 d2bf
00000360: 142d 9dbf fb3b bbbf 7539 c8bf 37d9 99bf
00000370: 33b7 b9bf b924 cbbf 03ae 9bbf f296 b2bf
00000380: 5e39 c6bf d375 a2bf 690e c9bf 8779 c6bf
00000390: 2360 9ebf 5a50 c4bf e794 c3bf 76c5 9dbf
000003a0: 9442 c2bf 2385 cabf 01c3 a7bf b7a8 bcbf
000003b0: f77e cebf 0e7d afbf c3da c2bf 1ade d3bf
000003c0: 2ef3 9dbf f69a b8bf b2ec c9bf db48 a5bf
000003d0: 25f8 c4bf d19e dbbf 988b a0bf 77c4 bcbf
000003e0: 8728 cabf 436b 983d 295a ecbd 77b4 24c0
000003f0: 6313 113d db83 c8bd c17a dbbf 6bfd aebc

decoder_L1.bias f4 [618]
-0.40230712 0.051512793 -0.3763783 -0.5468109 -6.3405323 -4.3524237 3.2552981 0.15290807
0.543004 4.3996706 3.4252617 3.045503 -0.9481694 1.281263 -0.5621905 4.088156
-0.25043285 -0.65278393 -0.30716076 -0.07882959 -0.4841706 -0.0048079668 -0.045384686 -0.28313833
-0.0028800464 0.074610166 -0.7631078 -0.8314485 -0.26729524 -0.19737707 0.12817866 -0.7657512
-0.0042442414 -0.6616169 -0.39084905 -0.05221405 -0.8355983 -0.6163118 -1.0514195 -0.8380678
-0.079744965 -1.169533 -0.23639198 -0.013171294 0.14460628 -0.8450974 0.08607869 -0.6085601
0.08839997 -0.2975797 -0.28424612 -0.2855879 -0.35052454 -0.037761416 -0.57710296 -0.032588582
-0.41060913 -0.8446147 0.090216406 -0.6224223 0.045903336 -0.24841236 -0.12599814 0.045182396
-0.20621143 -0.33144096 -0.07770123 -0.29624158 -0.19229257 -0.33937454 0.049123846 -1.0037577
-0.95785 -0.5778948 -1.0847838 -0.6385632 -0.16043852 -0.18402182 -0.5091969 -0.10357654
-0.626487 -0.7933717 -0.7428743 -1.3360564 -1.58305 -0.49295267 -1.4565486 -1.8378447
-0.7338667 -1.2425874 -0.879385 -2.2919295 -2.4821346 -3.4563189 -1.9437679 -0.5505569
-1.2762734 -0.094313905 -0.2214085 -0.92987245 -1.0269289 -0.710896 -0.33361772 1.0799264
0.3259941 0.38794532 0.66451275 0.70305026 1.057342 0.2482384 0.108061224 0.19033784
1.1775887 -0.10496748 0.18045828 0.10355855 0.49570364 0.38966018 0.074672095 0.020278044
-0.5822156 -0.23592827 -0.15312332 1.4155449 1.170504 1.3051522 1.2773331 0.72069585
1.2775332 0.58548874 1.3266712 0.7213079 0.5171755 0.55219203 0.17767413 0.44774076
1.0440373 0.31916338 0.4871161 1.0738325 1.0017525 0.25904837 1.0459965 0.5206253
0.8821546 0.4768682 0.37794647 0.9722713 0.8138602 0.81956553 0.77947664 0.2905768
0.024181303 0.15313701 -0.28393334 -0.46924073 -0.5545477 0.2839889 0.3816497 -0.54249877
0.3422768 0.22703789 0.4277001 0.36470273 0.47384426 0.7152544 0.4463104 0.3328129
0.28145272 0.27892563 1.2075999 0.46676943 0.68403125 -0.07500118 -0.6623781 -0.049054664
0.1625072 -0.3470653 -0.7374882 -0.08321885 -0.29801047 -0.80519396 -0.2500868 -0.7091983
-0.72925913 0.14111432 -0.9426293 -0.07122079 -0.7930831 -0.24172892 -0.8182167 -0.94324756
-0.7793084 -0.21590942 -0.6486849 -1.0109769 -0.10468736 -0.90352005 -0.996487 -0.10259714
-0.03224556 -0.105897404 -0.86487263 -0.7457651 -0.10640101 -1.0969964 0.13217154 -0.26939836
-0.20656598 -0.5976054 -0.6963588 -0.23660402 -0.03531124 -0.2588852 -0.24649772 -0.9594515
-0.12585108 -0.2644137 0.20256117 -0.23484665 0.12486451 -0.7287593 -0.78279656 0.039988752
-0.8547661 0.11786415 -1.0312897 -0.7375126 0.068844385 -0.7442626 0.14560322 -0.9093216
-0.69668454 -0.3681866 -0.58094496 -0.5779143 -1.7831042 -1.0169926 -0.27166817 2.1570537
0.008556012 -1.1142771 -0.32510746 -0.68425554 -0.8002364 -0.6683846 -0.36518478 -0.281364
-0.9697804 0.005416839 -0.21959856 0.14007616 0.06840595 -0.2131254 -0.075513475 -0.11909231
00000000: 33fb cdbe 14ff 523d a8b4 c0be cdfb 0bbf
00000010: a4e5 cac0 0e47 8bc0 ce56 5040 ef93 1c3e
00000020: 4f02 0b3f 1aca 8c40 7d37 5b40 85e9 4240
00000030: 3bbb 72bf 6d00 a43f b7eb 0fbf 2dd2 8240
00000040: bc38 80be d91c 27bf 2d44 9dbe 6871 a1bd
00000050: 35e5 f7be 268c 9dbb 4be5 39bd 82f7 90be
00000060: 29bf 3cbb 37cd 983d 085b 43bf cfd9 54bf
00000070: ecda 88be 371d 4abe 4441 033e 4508 44bf
00000080: 4713 8bbb ba5f 29bf 5e1d c8be 66de 55bd
00000090: c5e9 55bf 9cc6 1dbf ea94 86bf 9d8b 56bf
000000a0: 5451 a3bd 42b3 95bf bd10 72be 69cc 57bc
000000b0: ab13 143e 4e58 58bf 064a b03d 98ca 1bbf
000000c0: 0b0b b53d 5e5c 98be b588 91be 9438 92be
000000d0: f477 b3be b7ab 1abd 05bd 13bf 9b7b 05bd
000000e0: 5c3b d2be ab38 58bf 61c3 b83d 1157 1fbf
000000f0: 2305 3c3d cf5f 7ebe a805 01be 2d11 393d
00000100: 1729 53be a1b2 a9be d321 9fbd faac 97be
00000110: 58e8 44be 80c2 adbe 1636 493d 227b 80bf
00000120: a835 75bf eaf0 13bf 32da 8abf e178 23bf
00000130: ff49 24be 3770 3cbe ba5a 02bf f01f d4bd
00000140: 7461 20bf 681a 4bbf 032d 3ebf e503 abbf
00000150: 62a1 cabf 4b64 fcbe 2f70 babf 7f3e ebbf
00000160: b0de 3bbf 1b0d 9fbf 601f 61bf f9ae 12c0
00000170: 4bdb 1ec0 5434 5dc0 63cd f8bf 4cf1 0cbf
00000180: ed5c a3bf a627 c1bd e9b8 62be 1f0c 6ebf
00000190: 6872 83bf 48fd 35bf f1cf aabe 073b 8a3f
000001a0: b3e8 a63e c5a0 c63e 821d 2a3f 1afb 333f
000001b0: fc56 873f 3532 7e3e 344f dd3d ece7 423e
000001c0: 3abb 963f 31f9 d6bd 0eca 383e 8116 d43d
000001d0: decc fd3e 8a81 c73e afed 983d 241e a63c
000001e0: 150c 15bf 2e97 71be 5ccc 1cbe 9330 b53f
000001f0: 13d3 953f 3a0f a73f a77f a33f 867f 383f
00000200: 3586 a33f 97e2 153f 5dd0 a93f a2a7 383f
00000210: 9d65 043f 755c 0d3f 35f0 353e 473e e53e
00000220: 04a3 853f 6269 a33e 4867 f93e 5873 893f
00000230: 6d39 803f fda1 843e 37e3 853f b347 053f
00000240: e2d4 613f 1228 f43e 3382 c13e c6e6 783f
00000250: 2459 503f 0ccf 513f c88b 473f 7bc6 943e
00000260: de17 c63c f3cf 1c3e b65f 91be 5240 f0be
00000270: d7f6 0dbf fe66 913e 9767 c33e 33e1 0abf
00000280: e83e af3e 9f7c 683e 82fb da3e 51ba ba3e
00000290: b79b f23e ea1a 373f cc82 e43e 7466 aa3e
000002a0: 921a 903e 57cf 8e3e a292 9a3f 67fc ee3e
000002b0: ac1c 2f3f 389a 99bd 9c91 29bf 8bed 48bd
000002c0: 4a68 263e 8bb2 b1be 07cc 3cbf a56e aabd
000002d0: d494 98be 3121 4ebf 610b 80be 058e 35bf
000002e0: bab0 3abf 4680 103e 2750 71bf 35dc 91bd
000002f0: 7e07 4bbf c987 77be a676 51bf ac78 71bf
00000300: c180 47bf 5c17 5dbe 3710 26bf b167 81bf
00000310: 5466 d6bd 174d 67bf c619 7fbf 731e d2bd
00000320: ec13 04bd bde0 d8bd 4b68 5dbf 76ea 3ebf
00000330: c6e8 d9bd 616a 8cbf fa57 073e 95ee 89be
00000340: 0886 53be abfc 18bf 9244 32bf 5348 72be
00000350: 85a2 10bd 9a8c 84be e669 7cbe 9d9e 75bf
00000360: 1bdf 00be 3c61 87be 326c 4f3e a47b 70be
00000370: f7b8 ff3d f88f 3abf 5b65 48bf 3fcb 233d
00000380: f3d1 5abf c262 f13d 4d01 84bf a0cd 3cbf
00000390: 49fe 8c3d fe87 3ebf 0319 153e 4dc9 68bf
000003a0: eb59 32bf f482 bcbe cfb8 14bf 31f2 13bf
000003b0: c23c e4bf d02c 82bf 1718 8bbe 2b0d 0a40
000003c0: 842e 0c3c a2a0 8ebf 7c74 a6be 5f2b 2fbf
000003d0: 4bdc 4cbf 411b 2bbf 80f9 babe f10e 90be
000003e0: 8743 78bf bd7f b13b 72de 60be 2070 0f3e
000003f0: 6b18 8c3d 8b3d 5abe cfa6 9abd abe6 f3bd
